{"format": "graph-model", "generatedBy": "2.0.0", "convertedBy": "TensorFlow.js Converter v1.5.2", "userDefinedMetadata": {"signature": {"outputs": {"Openpose/concat_stage7": {"name": "Openpose/concat_stage7"}}}}, "modelTopology": {"node": [{"name": "image", "op": "Placeholder", "attr": {"shape": {"shape": {"dim": [{"size": "-1"}, {"size": "-1"}, {"size": "-1"}, {"size": "3"}]}}, "dtype": {"type": "DT_FLOAT"}}}, {"name": "preprocess_subtract/y", "op": "Const", "attr": {"value": {"tensor": {"dtype": "DT_FLOAT", "tensorShape": {}}}, "dtype": {"type": "DT_FLOAT"}}}, {"name": "conv1_1/weights", "op": "Const", "attr": {"value": {"tensor": {"dtype": "DT_FLOAT", "tensorShape": {"dim": [{"size": "3"}, {"size": "3"}, {"size": "3"}, {"size": "64"}]}}}, "dtype": {"type": "DT_FLOAT"}}}, {"name": "conv1_1/biases", "op": "Const", "attr": {"value": {"tensor": {"dtype": "DT_FLOAT", "tensorShape": {"dim": [{"size": "64"}]}}}, "dtype": {"type": "DT_FLOAT"}}}, {"name": "conv1_2/weights", "op": "Const", "attr": {"value": {"tensor": {"dtype": "DT_FLOAT", "tensorShape": {"dim": [{"size": "3"}, {"size": "3"}, {"size": "64"}, {"size": "64"}]}}}, "dtype": {"type": "DT_FLOAT"}}}, {"name": "Mconv3_stage5_L1/weights", "op": "Const", "attr": {"value": {"tensor": {"dtype": "DT_FLOAT", "tensorShape": {"dim": [{"size": "7"}, {"size": "7"}, {"size": "128"}, {"size": "128"}]}}}, "dtype": {"type": "DT_FLOAT"}}}, {"name": "conv1_2/biases", "op": "Const", "attr": {"value": {"tensor": {"dtype": "DT_FLOAT", "tensorShape": {"dim": [{"size": "64"}]}}}, "dtype": {"type": "DT_FLOAT"}}}, {"name": "Mconv6_stage6_L2/weights", "op": "Const", "attr": {"value": {"tensor": {"dtype": "DT_FLOAT", "tensorShape": {"dim": [{"size": "1"}, {"size": "1"}, {"size": "128"}, {"size": "128"}]}}}, "dtype": {"type": "DT_FLOAT"}}}, {"name": "conv2_1/weights", "op": "Const", "attr": {"value": {"tensor": {"dtype": "DT_FLOAT", "tensorShape": {"dim": [{"size": "3"}, {"size": "3"}, {"size": "64"}, {"size": "128"}]}}}, "dtype": {"type": "DT_FLOAT"}}}, {"name": "conv2_1/biases", "op": "Const", "attr": {"value": {"tensor": {"dtype": "DT_FLOAT", "tensorShape": {"dim": [{"size": "128"}]}}}, "dtype": {"type": "DT_FLOAT"}}}, {"name": "Mconv3_stage5_L1/biases", "op": "Const", "attr": {"value": {"tensor": {"dtype": "DT_FLOAT", "tensorShape": {"dim": [{"size": "128"}]}}}, "dtype": {"type": "DT_FLOAT"}}}, {"name": "conv2_2/weights", "op": "Const", "attr": {"value": {"tensor": {"dtype": "DT_FLOAT", "tensorShape": {"dim": [{"size": "3"}, {"size": "3"}, {"size": "128"}, {"size": "128"}]}}}, "dtype": {"type": "DT_FLOAT"}}}, {"name": "conv2_2/biases", "op": "Const", "attr": {"value": {"tensor": {"dtype": "DT_FLOAT", "tensorShape": {"dim": [{"size": "128"}]}}}, "dtype": {"type": "DT_FLOAT"}}}, {"name": "conv3_1/weights", "op": "Const", "attr": {"value": {"tensor": {"dtype": "DT_FLOAT", "tensorShape": {"dim": [{"size": "3"}, {"size": "3"}, {"size": "128"}, {"size": "256"}]}}}, "dtype": {"type": "DT_FLOAT"}}}, {"name": "conv3_1/biases", "op": "Const", "attr": {"value": {"tensor": {"dtype": "DT_FLOAT", "tensorShape": {"dim": [{"size": "256"}]}}}, "dtype": {"type": "DT_FLOAT"}}}, {"name": "Mconv4_stage5_L1/weights", "op": "Const", "attr": {"value": {"tensor": {"dtype": "DT_FLOAT", "tensorShape": {"dim": [{"size": "7"}, {"size": "7"}, {"size": "128"}, {"size": "128"}]}}}, "dtype": {"type": "DT_FLOAT"}}}, {"name": "conv3_2/weights", "op": "Const", "attr": {"value": {"tensor": {"dtype": "DT_FLOAT", "tensorShape": {"dim": [{"size": "3"}, {"size": "3"}, {"size": "256"}, {"size": "256"}]}}}, "dtype": {"type": "DT_FLOAT"}}}, {"name": "Mconv1_stage6_L2/weights", "op": "Const", "attr": {"value": {"tensor": {"dtype": "DT_FLOAT", "tensorShape": {"dim": [{"size": "7"}, {"size": "7"}, {"size": "185"}, {"size": "128"}]}}}, "dtype": {"type": "DT_FLOAT"}}}, {"name": "conv3_2/biases", "op": "Const", "attr": {"value": {"tensor": {"dtype": "DT_FLOAT", "tensorShape": {"dim": [{"size": "256"}]}}}, "dtype": {"type": "DT_FLOAT"}}}, {"name": "conv3_3/weights", "op": "Const", "attr": {"value": {"tensor": {"dtype": "DT_FLOAT", "tensorShape": {"dim": [{"size": "3"}, {"size": "3"}, {"size": "256"}, {"size": "256"}]}}}, "dtype": {"type": "DT_FLOAT"}}}, {"name": "Mconv4_stage5_L1/biases", "op": "Const", "attr": {"value": {"tensor": {"dtype": "DT_FLOAT", "tensorShape": {"dim": [{"size": "128"}]}}}, "dtype": {"type": "DT_FLOAT"}}}, {"name": "conv3_3/biases", "op": "Const", "attr": {"value": {"tensor": {"dtype": "DT_FLOAT", "tensorShape": {"dim": [{"size": "256"}]}}}, "dtype": {"type": "DT_FLOAT"}}}, {"name": "conv3_4/weights", "op": "Const", "attr": {"value": {"tensor": {"dtype": "DT_FLOAT", "tensorShape": {"dim": [{"size": "3"}, {"size": "3"}, {"size": "256"}, {"size": "256"}]}}}, "dtype": {"type": "DT_FLOAT"}}}, {"name": "conv3_4/biases", "op": "Const", "attr": {"value": {"tensor": {"dtype": "DT_FLOAT", "tensorShape": {"dim": [{"size": "256"}]}}}, "dtype": {"type": "DT_FLOAT"}}}, {"name": "conv4_1/weights", "op": "Const", "attr": {"value": {"tensor": {"dtype": "DT_FLOAT", "tensorShape": {"dim": [{"size": "3"}, {"size": "3"}, {"size": "256"}, {"size": "512"}]}}}, "dtype": {"type": "DT_FLOAT"}}}, {"name": "Mconv5_stage5_L1/weights", "op": "Const", "attr": {"value": {"tensor": {"dtype": "DT_FLOAT", "tensorShape": {"dim": [{"size": "7"}, {"size": "7"}, {"size": "128"}, {"size": "128"}]}}}, "dtype": {"type": "DT_FLOAT"}}}, {"name": "conv4_1/biases", "op": "Const", "attr": {"value": {"tensor": {"dtype": "DT_FLOAT", "tensorShape": {"dim": [{"size": "512"}]}}}, "dtype": {"type": "DT_FLOAT"}}}, {"name": "conv4_2/weights", "op": "Const", "attr": {"value": {"tensor": {"dtype": "DT_FLOAT", "tensorShape": {"dim": [{"size": "3"}, {"size": "3"}, {"size": "512"}, {"size": "512"}]}}}, "dtype": {"type": "DT_FLOAT"}}}, {"name": "conv4_2/biases", "op": "Const", "attr": {"value": {"tensor": {"dtype": "DT_FLOAT", "tensorShape": {"dim": [{"size": "512"}]}}}, "dtype": {"type": "DT_FLOAT"}}}, {"name": "Mconv5_stage5_L1/biases", "op": "Const", "attr": {"value": {"tensor": {"dtype": "DT_FLOAT", "tensorShape": {"dim": [{"size": "128"}]}}}, "dtype": {"type": "DT_FLOAT"}}}, {"name": "conv4_3_CPM/weights", "op": "Const", "attr": {"value": {"tensor": {"dtype": "DT_FLOAT", "tensorShape": {"dim": [{"size": "3"}, {"size": "3"}, {"size": "512"}, {"size": "256"}]}}}, "dtype": {"type": "DT_FLOAT"}}}, {"name": "Mconv1_stage6_L2/biases", "op": "Const", "attr": {"value": {"tensor": {"dtype": "DT_FLOAT", "tensorShape": {"dim": [{"size": "128"}]}}}, "dtype": {"type": "DT_FLOAT"}}}, {"name": "conv4_3_CPM/biases", "op": "Const", "attr": {"value": {"tensor": {"dtype": "DT_FLOAT", "tensorShape": {"dim": [{"size": "256"}]}}}, "dtype": {"type": "DT_FLOAT"}}}, {"name": "conv4_4_CPM/weights", "op": "Const", "attr": {"value": {"tensor": {"dtype": "DT_FLOAT", "tensorShape": {"dim": [{"size": "3"}, {"size": "3"}, {"size": "256"}, {"size": "128"}]}}}, "dtype": {"type": "DT_FLOAT"}}}, {"name": "conv4_4_CPM/biases", "op": "Const", "attr": {"value": {"tensor": {"dtype": "DT_FLOAT", "tensorShape": {"dim": [{"size": "128"}]}}}, "dtype": {"type": "DT_FLOAT"}}}, {"name": "Mconv6_stage5_L1/weights", "op": "Const", "attr": {"value": {"tensor": {"dtype": "DT_FLOAT", "tensorShape": {"dim": [{"size": "1"}, {"size": "1"}, {"size": "128"}, {"size": "128"}]}}}, "dtype": {"type": "DT_FLOAT"}}}, {"name": "conv5_1_CPM_L1/weights", "op": "Const", "attr": {"value": {"tensor": {"dtype": "DT_FLOAT", "tensorShape": {"dim": [{"size": "3"}, {"size": "3"}, {"size": "128"}, {"size": "128"}]}}}, "dtype": {"type": "DT_FLOAT"}}}, {"name": "conv5_1_CPM_L1/biases", "op": "Const", "attr": {"value": {"tensor": {"dtype": "DT_FLOAT", "tensorShape": {"dim": [{"size": "128"}]}}}, "dtype": {"type": "DT_FLOAT"}}}, {"name": "conv5_2_CPM_L1/weights", "op": "Const", "attr": {"value": {"tensor": {"dtype": "DT_FLOAT", "tensorShape": {"dim": [{"size": "3"}, {"size": "3"}, {"size": "128"}, {"size": "128"}]}}}, "dtype": {"type": "DT_FLOAT"}}}, {"name": "Mconv6_stage5_L1/biases", "op": "Const", "attr": {"value": {"tensor": {"dtype": "DT_FLOAT", "tensorShape": {"dim": [{"size": "128"}]}}}, "dtype": {"type": "DT_FLOAT"}}}, {"name": "conv5_2_CPM_L1/biases", "op": "Const", "attr": {"value": {"tensor": {"dtype": "DT_FLOAT", "tensorShape": {"dim": [{"size": "128"}]}}}, "dtype": {"type": "DT_FLOAT"}}}, {"name": "conv5_3_CPM_L1/weights", "op": "Const", "attr": {"value": {"tensor": {"dtype": "DT_FLOAT", "tensorShape": {"dim": [{"size": "3"}, {"size": "3"}, {"size": "128"}, {"size": "128"}]}}}, "dtype": {"type": "DT_FLOAT"}}}, {"name": "conv5_3_CPM_L1/biases", "op": "Const", "attr": {"value": {"tensor": {"dtype": "DT_FLOAT", "tensorShape": {"dim": [{"size": "128"}]}}}, "dtype": {"type": "DT_FLOAT"}}}, {"name": "conv5_4_CPM_L1/weights", "op": "Const", "attr": {"value": {"tensor": {"dtype": "DT_FLOAT", "tensorShape": {"dim": [{"size": "1"}, {"size": "1"}, {"size": "128"}, {"size": "512"}]}}}, "dtype": {"type": "DT_FLOAT"}}}, {"name": "Mconv7_stage5_L1/weights", "op": "Const", "attr": {"value": {"tensor": {"dtype": "DT_FLOAT", "tensorShape": {"dim": [{"size": "1"}, {"size": "1"}, {"size": "128"}, {"size": "38"}]}}}, "dtype": {"type": "DT_FLOAT"}}}, {"name": "conv5_4_CPM_L1/biases", "op": "Const", "attr": {"value": {"tensor": {"dtype": "DT_FLOAT", "tensorShape": {"dim": [{"size": "512"}]}}}, "dtype": {"type": "DT_FLOAT"}}}, {"name": "conv5_5_CPM_L1/weights", "op": "Const", "attr": {"value": {"tensor": {"dtype": "DT_FLOAT", "tensorShape": {"dim": [{"size": "1"}, {"size": "1"}, {"size": "512"}, {"size": "38"}]}}}, "dtype": {"type": "DT_FLOAT"}}}, {"name": "conv5_5_CPM_L1/biases", "op": "Const", "attr": {"value": {"tensor": {"dtype": "DT_FLOAT", "tensorShape": {"dim": [{"size": "38"}]}}}, "dtype": {"type": "DT_FLOAT"}}}, {"name": "Mconv7_stage5_L1/biases", "op": "Const", "attr": {"value": {"tensor": {"dtype": "DT_FLOAT", "tensorShape": {"dim": [{"size": "38"}]}}}, "dtype": {"type": "DT_FLOAT"}}}, {"name": "conv5_1_CPM_L2/weights", "op": "Const", "attr": {"value": {"tensor": {"dtype": "DT_FLOAT", "tensorShape": {"dim": [{"size": "3"}, {"size": "3"}, {"size": "128"}, {"size": "128"}]}}}, "dtype": {"type": "DT_FLOAT"}}}, {"name": "Mconv2_stage6_L2/weights", "op": "Const", "attr": {"value": {"tensor": {"dtype": "DT_FLOAT", "tensorShape": {"dim": [{"size": "7"}, {"size": "7"}, {"size": "128"}, {"size": "128"}]}}}, "dtype": {"type": "DT_FLOAT"}}}, {"name": "conv5_1_CPM_L2/biases", "op": "Const", "attr": {"value": {"tensor": {"dtype": "DT_FLOAT", "tensorShape": {"dim": [{"size": "128"}]}}}, "dtype": {"type": "DT_FLOAT"}}}, {"name": "conv5_2_CPM_L2/weights", "op": "Const", "attr": {"value": {"tensor": {"dtype": "DT_FLOAT", "tensorShape": {"dim": [{"size": "3"}, {"size": "3"}, {"size": "128"}, {"size": "128"}]}}}, "dtype": {"type": "DT_FLOAT"}}}, {"name": "Mconv1_stage5_L2/weights", "op": "Const", "attr": {"value": {"tensor": {"dtype": "DT_FLOAT", "tensorShape": {"dim": [{"size": "7"}, {"size": "7"}, {"size": "185"}, {"size": "128"}]}}}, "dtype": {"type": "DT_FLOAT"}}}, {"name": "conv5_2_CPM_L2/biases", "op": "Const", "attr": {"value": {"tensor": {"dtype": "DT_FLOAT", "tensorShape": {"dim": [{"size": "128"}]}}}, "dtype": {"type": "DT_FLOAT"}}}, {"name": "Mconv6_stage6_L2/biases", "op": "Const", "attr": {"value": {"tensor": {"dtype": "DT_FLOAT", "tensorShape": {"dim": [{"size": "128"}]}}}, "dtype": {"type": "DT_FLOAT"}}}, {"name": "conv5_3_CPM_L2/weights", "op": "Const", "attr": {"value": {"tensor": {"dtype": "DT_FLOAT", "tensorShape": {"dim": [{"size": "3"}, {"size": "3"}, {"size": "128"}, {"size": "128"}]}}}, "dtype": {"type": "DT_FLOAT"}}}, {"name": "conv5_3_CPM_L2/biases", "op": "Const", "attr": {"value": {"tensor": {"dtype": "DT_FLOAT", "tensorShape": {"dim": [{"size": "128"}]}}}, "dtype": {"type": "DT_FLOAT"}}}, {"name": "Mconv1_stage5_L2/biases", "op": "Const", "attr": {"value": {"tensor": {"dtype": "DT_FLOAT", "tensorShape": {"dim": [{"size": "128"}]}}}, "dtype": {"type": "DT_FLOAT"}}}, {"name": "conv5_4_CPM_L2/weights", "op": "Const", "attr": {"value": {"tensor": {"dtype": "DT_FLOAT", "tensorShape": {"dim": [{"size": "1"}, {"size": "1"}, {"size": "128"}, {"size": "512"}]}}}, "dtype": {"type": "DT_FLOAT"}}}, {"name": "conv5_4_CPM_L2/biases", "op": "Const", "attr": {"value": {"tensor": {"dtype": "DT_FLOAT", "tensorShape": {"dim": [{"size": "512"}]}}}, "dtype": {"type": "DT_FLOAT"}}}, {"name": "conv5_5_CPM_L2/weights", "op": "Const", "attr": {"value": {"tensor": {"dtype": "DT_FLOAT", "tensorShape": {"dim": [{"size": "1"}, {"size": "1"}, {"size": "512"}, {"size": "19"}]}}}, "dtype": {"type": "DT_FLOAT"}}}, {"name": "conv5_5_CPM_L2/biases", "op": "Const", "attr": {"value": {"tensor": {"dtype": "DT_FLOAT", "tensorShape": {"dim": [{"size": "19"}]}}}, "dtype": {"type": "DT_FLOAT"}}}, {"name": "Mconv2_stage5_L2/weights", "op": "Const", "attr": {"value": {"tensor": {"dtype": "DT_FLOAT", "tensorShape": {"dim": [{"size": "7"}, {"size": "7"}, {"size": "128"}, {"size": "128"}]}}}, "dtype": {"type": "DT_FLOAT"}}}, {"name": "concat_stage2/axis", "op": "Const", "attr": {"value": {"tensor": {"dtype": "DT_INT32", "tensorShape": {}}}, "dtype": {"type": "DT_INT32"}}}, {"name": "Mconv1_stage2_L1/weights", "op": "Const", "attr": {"value": {"tensor": {"dtype": "DT_FLOAT", "tensorShape": {"dim": [{"size": "7"}, {"size": "7"}, {"size": "185"}, {"size": "128"}]}}}, "dtype": {"type": "DT_FLOAT"}}}, {"name": "Mconv2_stage6_L2/biases", "op": "Const", "attr": {"value": {"tensor": {"dtype": "DT_FLOAT", "tensorShape": {"dim": [{"size": "128"}]}}}, "dtype": {"type": "DT_FLOAT"}}}, {"name": "Mconv1_stage2_L1/biases", "op": "Const", "attr": {"value": {"tensor": {"dtype": "DT_FLOAT", "tensorShape": {"dim": [{"size": "128"}]}}}, "dtype": {"type": "DT_FLOAT"}}}, {"name": "Mconv2_stage2_L1/weights", "op": "Const", "attr": {"value": {"tensor": {"dtype": "DT_FLOAT", "tensorShape": {"dim": [{"size": "7"}, {"size": "7"}, {"size": "128"}, {"size": "128"}]}}}, "dtype": {"type": "DT_FLOAT"}}}, {"name": "Mconv2_stage5_L2/biases", "op": "Const", "attr": {"value": {"tensor": {"dtype": "DT_FLOAT", "tensorShape": {"dim": [{"size": "128"}]}}}, "dtype": {"type": "DT_FLOAT"}}}, {"name": "Mconv2_stage2_L1/biases", "op": "Const", "attr": {"value": {"tensor": {"dtype": "DT_FLOAT", "tensorShape": {"dim": [{"size": "128"}]}}}, "dtype": {"type": "DT_FLOAT"}}}, {"name": "Mconv3_stage2_L1/weights", "op": "Const", "attr": {"value": {"tensor": {"dtype": "DT_FLOAT", "tensorShape": {"dim": [{"size": "7"}, {"size": "7"}, {"size": "128"}, {"size": "128"}]}}}, "dtype": {"type": "DT_FLOAT"}}}, {"name": "Mconv3_stage2_L1/biases", "op": "Const", "attr": {"value": {"tensor": {"dtype": "DT_FLOAT", "tensorShape": {"dim": [{"size": "128"}]}}}, "dtype": {"type": "DT_FLOAT"}}}, {"name": "Mconv4_stage2_L1/weights", "op": "Const", "attr": {"value": {"tensor": {"dtype": "DT_FLOAT", "tensorShape": {"dim": [{"size": "7"}, {"size": "7"}, {"size": "128"}, {"size": "128"}]}}}, "dtype": {"type": "DT_FLOAT"}}}, {"name": "Mconv3_stage5_L2/weights", "op": "Const", "attr": {"value": {"tensor": {"dtype": "DT_FLOAT", "tensorShape": {"dim": [{"size": "7"}, {"size": "7"}, {"size": "128"}, {"size": "128"}]}}}, "dtype": {"type": "DT_FLOAT"}}}, {"name": "Mconv4_stage2_L1/biases", "op": "Const", "attr": {"value": {"tensor": {"dtype": "DT_FLOAT", "tensorShape": {"dim": [{"size": "128"}]}}}, "dtype": {"type": "DT_FLOAT"}}}, {"name": "Mconv5_stage2_L1/weights", "op": "Const", "attr": {"value": {"tensor": {"dtype": "DT_FLOAT", "tensorShape": {"dim": [{"size": "7"}, {"size": "7"}, {"size": "128"}, {"size": "128"}]}}}, "dtype": {"type": "DT_FLOAT"}}}, {"name": "Mconv5_stage2_L1/biases", "op": "Const", "attr": {"value": {"tensor": {"dtype": "DT_FLOAT", "tensorShape": {"dim": [{"size": "128"}]}}}, "dtype": {"type": "DT_FLOAT"}}}, {"name": "Mconv3_stage5_L2/biases", "op": "Const", "attr": {"value": {"tensor": {"dtype": "DT_FLOAT", "tensorShape": {"dim": [{"size": "128"}]}}}, "dtype": {"type": "DT_FLOAT"}}}, {"name": "Mconv6_stage2_L1/weights", "op": "Const", "attr": {"value": {"tensor": {"dtype": "DT_FLOAT", "tensorShape": {"dim": [{"size": "1"}, {"size": "1"}, {"size": "128"}, {"size": "128"}]}}}, "dtype": {"type": "DT_FLOAT"}}}, {"name": "Mconv6_stage2_L1/biases", "op": "Const", "attr": {"value": {"tensor": {"dtype": "DT_FLOAT", "tensorShape": {"dim": [{"size": "128"}]}}}, "dtype": {"type": "DT_FLOAT"}}}, {"name": "Mconv7_stage2_L1/weights", "op": "Const", "attr": {"value": {"tensor": {"dtype": "DT_FLOAT", "tensorShape": {"dim": [{"size": "1"}, {"size": "1"}, {"size": "128"}, {"size": "38"}]}}}, "dtype": {"type": "DT_FLOAT"}}}, {"name": "Mconv7_stage2_L1/biases", "op": "Const", "attr": {"value": {"tensor": {"dtype": "DT_FLOAT", "tensorShape": {"dim": [{"size": "38"}]}}}, "dtype": {"type": "DT_FLOAT"}}}, {"name": "Mconv4_stage5_L2/weights", "op": "Const", "attr": {"value": {"tensor": {"dtype": "DT_FLOAT", "tensorShape": {"dim": [{"size": "7"}, {"size": "7"}, {"size": "128"}, {"size": "128"}]}}}, "dtype": {"type": "DT_FLOAT"}}}, {"name": "Mconv1_stage2_L2/weights", "op": "Const", "attr": {"value": {"tensor": {"dtype": "DT_FLOAT", "tensorShape": {"dim": [{"size": "7"}, {"size": "7"}, {"size": "185"}, {"size": "128"}]}}}, "dtype": {"type": "DT_FLOAT"}}}, {"name": "Mconv3_stage6_L2/weights", "op": "Const", "attr": {"value": {"tensor": {"dtype": "DT_FLOAT", "tensorShape": {"dim": [{"size": "7"}, {"size": "7"}, {"size": "128"}, {"size": "128"}]}}}, "dtype": {"type": "DT_FLOAT"}}}, {"name": "Mconv1_stage2_L2/biases", "op": "Const", "attr": {"value": {"tensor": {"dtype": "DT_FLOAT", "tensorShape": {"dim": [{"size": "128"}]}}}, "dtype": {"type": "DT_FLOAT"}}}, {"name": "Mconv2_stage2_L2/weights", "op": "Const", "attr": {"value": {"tensor": {"dtype": "DT_FLOAT", "tensorShape": {"dim": [{"size": "7"}, {"size": "7"}, {"size": "128"}, {"size": "128"}]}}}, "dtype": {"type": "DT_FLOAT"}}}, {"name": "Mconv4_stage5_L2/biases", "op": "Const", "attr": {"value": {"tensor": {"dtype": "DT_FLOAT", "tensorShape": {"dim": [{"size": "128"}]}}}, "dtype": {"type": "DT_FLOAT"}}}, {"name": "Mconv2_stage2_L2/biases", "op": "Const", "attr": {"value": {"tensor": {"dtype": "DT_FLOAT", "tensorShape": {"dim": [{"size": "128"}]}}}, "dtype": {"type": "DT_FLOAT"}}}, {"name": "Mconv3_stage2_L2/weights", "op": "Const", "attr": {"value": {"tensor": {"dtype": "DT_FLOAT", "tensorShape": {"dim": [{"size": "7"}, {"size": "7"}, {"size": "128"}, {"size": "128"}]}}}, "dtype": {"type": "DT_FLOAT"}}}, {"name": "Mconv3_stage2_L2/biases", "op": "Const", "attr": {"value": {"tensor": {"dtype": "DT_FLOAT", "tensorShape": {"dim": [{"size": "128"}]}}}, "dtype": {"type": "DT_FLOAT"}}}, {"name": "Mconv4_stage2_L2/weights", "op": "Const", "attr": {"value": {"tensor": {"dtype": "DT_FLOAT", "tensorShape": {"dim": [{"size": "7"}, {"size": "7"}, {"size": "128"}, {"size": "128"}]}}}, "dtype": {"type": "DT_FLOAT"}}}, {"name": "Mconv5_stage5_L2/weights", "op": "Const", "attr": {"value": {"tensor": {"dtype": "DT_FLOAT", "tensorShape": {"dim": [{"size": "7"}, {"size": "7"}, {"size": "128"}, {"size": "128"}]}}}, "dtype": {"type": "DT_FLOAT"}}}, {"name": "Mconv4_stage2_L2/biases", "op": "Const", "attr": {"value": {"tensor": {"dtype": "DT_FLOAT", "tensorShape": {"dim": [{"size": "128"}]}}}, "dtype": {"type": "DT_FLOAT"}}}, {"name": "Mconv5_stage2_L2/weights", "op": "Const", "attr": {"value": {"tensor": {"dtype": "DT_FLOAT", "tensorShape": {"dim": [{"size": "7"}, {"size": "7"}, {"size": "128"}, {"size": "128"}]}}}, "dtype": {"type": "DT_FLOAT"}}}, {"name": "Mconv5_stage2_L2/biases", "op": "Const", "attr": {"value": {"tensor": {"dtype": "DT_FLOAT", "tensorShape": {"dim": [{"size": "128"}]}}}, "dtype": {"type": "DT_FLOAT"}}}, {"name": "Mconv5_stage5_L2/biases", "op": "Const", "attr": {"value": {"tensor": {"dtype": "DT_FLOAT", "tensorShape": {"dim": [{"size": "128"}]}}}, "dtype": {"type": "DT_FLOAT"}}}, {"name": "Mconv6_stage2_L2/weights", "op": "Const", "attr": {"value": {"tensor": {"dtype": "DT_FLOAT", "tensorShape": {"dim": [{"size": "1"}, {"size": "1"}, {"size": "128"}, {"size": "128"}]}}}, "dtype": {"type": "DT_FLOAT"}}}, {"name": "Mconv3_stage6_L2/biases", "op": "Const", "attr": {"value": {"tensor": {"dtype": "DT_FLOAT", "tensorShape": {"dim": [{"size": "128"}]}}}, "dtype": {"type": "DT_FLOAT"}}}, {"name": "Mconv6_stage2_L2/biases", "op": "Const", "attr": {"value": {"tensor": {"dtype": "DT_FLOAT", "tensorShape": {"dim": [{"size": "128"}]}}}, "dtype": {"type": "DT_FLOAT"}}}, {"name": "Mconv7_stage2_L2/weights", "op": "Const", "attr": {"value": {"tensor": {"dtype": "DT_FLOAT", "tensorShape": {"dim": [{"size": "1"}, {"size": "1"}, {"size": "128"}, {"size": "19"}]}}}, "dtype": {"type": "DT_FLOAT"}}}, {"name": "Mconv7_stage2_L2/biases", "op": "Const", "attr": {"value": {"tensor": {"dtype": "DT_FLOAT", "tensorShape": {"dim": [{"size": "19"}]}}}, "dtype": {"type": "DT_FLOAT"}}}, {"name": "Mconv6_stage5_L2/weights", "op": "Const", "attr": {"value": {"tensor": {"dtype": "DT_FLOAT", "tensorShape": {"dim": [{"size": "1"}, {"size": "1"}, {"size": "128"}, {"size": "128"}]}}}, "dtype": {"type": "DT_FLOAT"}}}, {"name": "Mconv1_stage3_L1/weights", "op": "Const", "attr": {"value": {"tensor": {"dtype": "DT_FLOAT", "tensorShape": {"dim": [{"size": "7"}, {"size": "7"}, {"size": "185"}, {"size": "128"}]}}}, "dtype": {"type": "DT_FLOAT"}}}, {"name": "Mconv1_stage3_L1/biases", "op": "Const", "attr": {"value": {"tensor": {"dtype": "DT_FLOAT", "tensorShape": {"dim": [{"size": "128"}]}}}, "dtype": {"type": "DT_FLOAT"}}}, {"name": "Mconv2_stage3_L1/weights", "op": "Const", "attr": {"value": {"tensor": {"dtype": "DT_FLOAT", "tensorShape": {"dim": [{"size": "7"}, {"size": "7"}, {"size": "128"}, {"size": "128"}]}}}, "dtype": {"type": "DT_FLOAT"}}}, {"name": "Mconv6_stage5_L2/biases", "op": "Const", "attr": {"value": {"tensor": {"dtype": "DT_FLOAT", "tensorShape": {"dim": [{"size": "128"}]}}}, "dtype": {"type": "DT_FLOAT"}}}, {"name": "Mconv2_stage3_L1/biases", "op": "Const", "attr": {"value": {"tensor": {"dtype": "DT_FLOAT", "tensorShape": {"dim": [{"size": "128"}]}}}, "dtype": {"type": "DT_FLOAT"}}}, {"name": "Mconv3_stage3_L1/weights", "op": "Const", "attr": {"value": {"tensor": {"dtype": "DT_FLOAT", "tensorShape": {"dim": [{"size": "7"}, {"size": "7"}, {"size": "128"}, {"size": "128"}]}}}, "dtype": {"type": "DT_FLOAT"}}}, {"name": "Mconv3_stage3_L1/biases", "op": "Const", "attr": {"value": {"tensor": {"dtype": "DT_FLOAT", "tensorShape": {"dim": [{"size": "128"}]}}}, "dtype": {"type": "DT_FLOAT"}}}, {"name": "Mconv4_stage3_L1/weights", "op": "Const", "attr": {"value": {"tensor": {"dtype": "DT_FLOAT", "tensorShape": {"dim": [{"size": "7"}, {"size": "7"}, {"size": "128"}, {"size": "128"}]}}}, "dtype": {"type": "DT_FLOAT"}}}, {"name": "Mconv7_stage5_L2/weights", "op": "Const", "attr": {"value": {"tensor": {"dtype": "DT_FLOAT", "tensorShape": {"dim": [{"size": "1"}, {"size": "1"}, {"size": "128"}, {"size": "19"}]}}}, "dtype": {"type": "DT_FLOAT"}}}, {"name": "Mconv4_stage3_L1/biases", "op": "Const", "attr": {"value": {"tensor": {"dtype": "DT_FLOAT", "tensorShape": {"dim": [{"size": "128"}]}}}, "dtype": {"type": "DT_FLOAT"}}}, {"name": "Mconv5_stage3_L1/weights", "op": "Const", "attr": {"value": {"tensor": {"dtype": "DT_FLOAT", "tensorShape": {"dim": [{"size": "7"}, {"size": "7"}, {"size": "128"}, {"size": "128"}]}}}, "dtype": {"type": "DT_FLOAT"}}}, {"name": "Mconv5_stage3_L1/biases", "op": "Const", "attr": {"value": {"tensor": {"dtype": "DT_FLOAT", "tensorShape": {"dim": [{"size": "128"}]}}}, "dtype": {"type": "DT_FLOAT"}}}, {"name": "Mconv7_stage5_L2/biases", "op": "Const", "attr": {"value": {"tensor": {"dtype": "DT_FLOAT", "tensorShape": {"dim": [{"size": "19"}]}}}, "dtype": {"type": "DT_FLOAT"}}}, {"name": "Mconv6_stage3_L1/weights", "op": "Const", "attr": {"value": {"tensor": {"dtype": "DT_FLOAT", "tensorShape": {"dim": [{"size": "1"}, {"size": "1"}, {"size": "128"}, {"size": "128"}]}}}, "dtype": {"type": "DT_FLOAT"}}}, {"name": "Mconv4_stage6_L2/weights", "op": "Const", "attr": {"value": {"tensor": {"dtype": "DT_FLOAT", "tensorShape": {"dim": [{"size": "7"}, {"size": "7"}, {"size": "128"}, {"size": "128"}]}}}, "dtype": {"type": "DT_FLOAT"}}}, {"name": "Mconv6_stage3_L1/biases", "op": "Const", "attr": {"value": {"tensor": {"dtype": "DT_FLOAT", "tensorShape": {"dim": [{"size": "128"}]}}}, "dtype": {"type": "DT_FLOAT"}}}, {"name": "Mconv7_stage3_L1/weights", "op": "Const", "attr": {"value": {"tensor": {"dtype": "DT_FLOAT", "tensorShape": {"dim": [{"size": "1"}, {"size": "1"}, {"size": "128"}, {"size": "38"}]}}}, "dtype": {"type": "DT_FLOAT"}}}, {"name": "Mconv7_stage3_L1/biases", "op": "Const", "attr": {"value": {"tensor": {"dtype": "DT_FLOAT", "tensorShape": {"dim": [{"size": "38"}]}}}, "dtype": {"type": "DT_FLOAT"}}}, {"name": "Mconv1_stage3_L2/weights", "op": "Const", "attr": {"value": {"tensor": {"dtype": "DT_FLOAT", "tensorShape": {"dim": [{"size": "7"}, {"size": "7"}, {"size": "185"}, {"size": "128"}]}}}, "dtype": {"type": "DT_FLOAT"}}}, {"name": "Mconv1_stage6_L1/weights", "op": "Const", "attr": {"value": {"tensor": {"dtype": "DT_FLOAT", "tensorShape": {"dim": [{"size": "7"}, {"size": "7"}, {"size": "185"}, {"size": "128"}]}}}, "dtype": {"type": "DT_FLOAT"}}}, {"name": "Mconv1_stage3_L2/biases", "op": "Const", "attr": {"value": {"tensor": {"dtype": "DT_FLOAT", "tensorShape": {"dim": [{"size": "128"}]}}}, "dtype": {"type": "DT_FLOAT"}}}, {"name": "Mconv7_stage6_L2/weights", "op": "Const", "attr": {"value": {"tensor": {"dtype": "DT_FLOAT", "tensorShape": {"dim": [{"size": "1"}, {"size": "1"}, {"size": "128"}, {"size": "19"}]}}}, "dtype": {"type": "DT_FLOAT"}}}, {"name": "Mconv2_stage3_L2/weights", "op": "Const", "attr": {"value": {"tensor": {"dtype": "DT_FLOAT", "tensorShape": {"dim": [{"size": "7"}, {"size": "7"}, {"size": "128"}, {"size": "128"}]}}}, "dtype": {"type": "DT_FLOAT"}}}, {"name": "Mconv2_stage3_L2/biases", "op": "Const", "attr": {"value": {"tensor": {"dtype": "DT_FLOAT", "tensorShape": {"dim": [{"size": "128"}]}}}, "dtype": {"type": "DT_FLOAT"}}}, {"name": "Mconv1_stage6_L1/biases", "op": "Const", "attr": {"value": {"tensor": {"dtype": "DT_FLOAT", "tensorShape": {"dim": [{"size": "128"}]}}}, "dtype": {"type": "DT_FLOAT"}}}, {"name": "Mconv3_stage3_L2/weights", "op": "Const", "attr": {"value": {"tensor": {"dtype": "DT_FLOAT", "tensorShape": {"dim": [{"size": "7"}, {"size": "7"}, {"size": "128"}, {"size": "128"}]}}}, "dtype": {"type": "DT_FLOAT"}}}, {"name": "Mconv3_stage3_L2/biases", "op": "Const", "attr": {"value": {"tensor": {"dtype": "DT_FLOAT", "tensorShape": {"dim": [{"size": "128"}]}}}, "dtype": {"type": "DT_FLOAT"}}}, {"name": "Mconv4_stage3_L2/weights", "op": "Const", "attr": {"value": {"tensor": {"dtype": "DT_FLOAT", "tensorShape": {"dim": [{"size": "7"}, {"size": "7"}, {"size": "128"}, {"size": "128"}]}}}, "dtype": {"type": "DT_FLOAT"}}}, {"name": "Mconv4_stage3_L2/biases", "op": "Const", "attr": {"value": {"tensor": {"dtype": "DT_FLOAT", "tensorShape": {"dim": [{"size": "128"}]}}}, "dtype": {"type": "DT_FLOAT"}}}, {"name": "Mconv2_stage6_L1/weights", "op": "Const", "attr": {"value": {"tensor": {"dtype": "DT_FLOAT", "tensorShape": {"dim": [{"size": "7"}, {"size": "7"}, {"size": "128"}, {"size": "128"}]}}}, "dtype": {"type": "DT_FLOAT"}}}, {"name": "Mconv5_stage3_L2/weights", "op": "Const", "attr": {"value": {"tensor": {"dtype": "DT_FLOAT", "tensorShape": {"dim": [{"size": "7"}, {"size": "7"}, {"size": "128"}, {"size": "128"}]}}}, "dtype": {"type": "DT_FLOAT"}}}, {"name": "Mconv4_stage6_L2/biases", "op": "Const", "attr": {"value": {"tensor": {"dtype": "DT_FLOAT", "tensorShape": {"dim": [{"size": "128"}]}}}, "dtype": {"type": "DT_FLOAT"}}}, {"name": "Mconv5_stage3_L2/biases", "op": "Const", "attr": {"value": {"tensor": {"dtype": "DT_FLOAT", "tensorShape": {"dim": [{"size": "128"}]}}}, "dtype": {"type": "DT_FLOAT"}}}, {"name": "Mconv6_stage3_L2/weights", "op": "Const", "attr": {"value": {"tensor": {"dtype": "DT_FLOAT", "tensorShape": {"dim": [{"size": "1"}, {"size": "1"}, {"size": "128"}, {"size": "128"}]}}}, "dtype": {"type": "DT_FLOAT"}}}, {"name": "Mconv2_stage6_L1/biases", "op": "Const", "attr": {"value": {"tensor": {"dtype": "DT_FLOAT", "tensorShape": {"dim": [{"size": "128"}]}}}, "dtype": {"type": "DT_FLOAT"}}}, {"name": "Mconv6_stage3_L2/biases", "op": "Const", "attr": {"value": {"tensor": {"dtype": "DT_FLOAT", "tensorShape": {"dim": [{"size": "128"}]}}}, "dtype": {"type": "DT_FLOAT"}}}, {"name": "Mconv7_stage3_L2/weights", "op": "Const", "attr": {"value": {"tensor": {"dtype": "DT_FLOAT", "tensorShape": {"dim": [{"size": "1"}, {"size": "1"}, {"size": "128"}, {"size": "19"}]}}}, "dtype": {"type": "DT_FLOAT"}}}, {"name": "Mconv7_stage3_L2/biases", "op": "Const", "attr": {"value": {"tensor": {"dtype": "DT_FLOAT", "tensorShape": {"dim": [{"size": "19"}]}}}, "dtype": {"type": "DT_FLOAT"}}}, {"name": "Mconv1_stage4_L1/weights", "op": "Const", "attr": {"value": {"tensor": {"dtype": "DT_FLOAT", "tensorShape": {"dim": [{"size": "7"}, {"size": "7"}, {"size": "185"}, {"size": "128"}]}}}, "dtype": {"type": "DT_FLOAT"}}}, {"name": "Mconv3_stage6_L1/weights", "op": "Const", "attr": {"value": {"tensor": {"dtype": "DT_FLOAT", "tensorShape": {"dim": [{"size": "7"}, {"size": "7"}, {"size": "128"}, {"size": "128"}]}}}, "dtype": {"type": "DT_FLOAT"}}}, {"name": "Mconv1_stage4_L1/biases", "op": "Const", "attr": {"value": {"tensor": {"dtype": "DT_FLOAT", "tensorShape": {"dim": [{"size": "128"}]}}}, "dtype": {"type": "DT_FLOAT"}}}, {"name": "Mconv2_stage4_L1/weights", "op": "Const", "attr": {"value": {"tensor": {"dtype": "DT_FLOAT", "tensorShape": {"dim": [{"size": "7"}, {"size": "7"}, {"size": "128"}, {"size": "128"}]}}}, "dtype": {"type": "DT_FLOAT"}}}, {"name": "Mconv2_stage4_L1/biases", "op": "Const", "attr": {"value": {"tensor": {"dtype": "DT_FLOAT", "tensorShape": {"dim": [{"size": "128"}]}}}, "dtype": {"type": "DT_FLOAT"}}}, {"name": "Mconv3_stage6_L1/biases", "op": "Const", "attr": {"value": {"tensor": {"dtype": "DT_FLOAT", "tensorShape": {"dim": [{"size": "128"}]}}}, "dtype": {"type": "DT_FLOAT"}}}, {"name": "Mconv3_stage4_L1/weights", "op": "Const", "attr": {"value": {"tensor": {"dtype": "DT_FLOAT", "tensorShape": {"dim": [{"size": "7"}, {"size": "7"}, {"size": "128"}, {"size": "128"}]}}}, "dtype": {"type": "DT_FLOAT"}}}, {"name": "Mconv3_stage4_L1/biases", "op": "Const", "attr": {"value": {"tensor": {"dtype": "DT_FLOAT", "tensorShape": {"dim": [{"size": "128"}]}}}, "dtype": {"type": "DT_FLOAT"}}}, {"name": "Mconv4_stage4_L1/weights", "op": "Const", "attr": {"value": {"tensor": {"dtype": "DT_FLOAT", "tensorShape": {"dim": [{"size": "7"}, {"size": "7"}, {"size": "128"}, {"size": "128"}]}}}, "dtype": {"type": "DT_FLOAT"}}}, {"name": "Mconv4_stage4_L1/biases", "op": "Const", "attr": {"value": {"tensor": {"dtype": "DT_FLOAT", "tensorShape": {"dim": [{"size": "128"}]}}}, "dtype": {"type": "DT_FLOAT"}}}, {"name": "Mconv4_stage6_L1/weights", "op": "Const", "attr": {"value": {"tensor": {"dtype": "DT_FLOAT", "tensorShape": {"dim": [{"size": "7"}, {"size": "7"}, {"size": "128"}, {"size": "128"}]}}}, "dtype": {"type": "DT_FLOAT"}}}, {"name": "Mconv5_stage4_L1/weights", "op": "Const", "attr": {"value": {"tensor": {"dtype": "DT_FLOAT", "tensorShape": {"dim": [{"size": "7"}, {"size": "7"}, {"size": "128"}, {"size": "128"}]}}}, "dtype": {"type": "DT_FLOAT"}}}, {"name": "Mconv5_stage6_L2/weights", "op": "Const", "attr": {"value": {"tensor": {"dtype": "DT_FLOAT", "tensorShape": {"dim": [{"size": "7"}, {"size": "7"}, {"size": "128"}, {"size": "128"}]}}}, "dtype": {"type": "DT_FLOAT"}}}, {"name": "Mconv5_stage4_L1/biases", "op": "Const", "attr": {"value": {"tensor": {"dtype": "DT_FLOAT", "tensorShape": {"dim": [{"size": "128"}]}}}, "dtype": {"type": "DT_FLOAT"}}}, {"name": "Mconv6_stage4_L1/weights", "op": "Const", "attr": {"value": {"tensor": {"dtype": "DT_FLOAT", "tensorShape": {"dim": [{"size": "1"}, {"size": "1"}, {"size": "128"}, {"size": "128"}]}}}, "dtype": {"type": "DT_FLOAT"}}}, {"name": "Mconv4_stage6_L1/biases", "op": "Const", "attr": {"value": {"tensor": {"dtype": "DT_FLOAT", "tensorShape": {"dim": [{"size": "128"}]}}}, "dtype": {"type": "DT_FLOAT"}}}, {"name": "Mconv6_stage4_L1/biases", "op": "Const", "attr": {"value": {"tensor": {"dtype": "DT_FLOAT", "tensorShape": {"dim": [{"size": "128"}]}}}, "dtype": {"type": "DT_FLOAT"}}}, {"name": "Mconv7_stage4_L1/weights", "op": "Const", "attr": {"value": {"tensor": {"dtype": "DT_FLOAT", "tensorShape": {"dim": [{"size": "1"}, {"size": "1"}, {"size": "128"}, {"size": "38"}]}}}, "dtype": {"type": "DT_FLOAT"}}}, {"name": "Mconv7_stage4_L1/biases", "op": "Const", "attr": {"value": {"tensor": {"dtype": "DT_FLOAT", "tensorShape": {"dim": [{"size": "38"}]}}}, "dtype": {"type": "DT_FLOAT"}}}, {"name": "Mconv1_stage4_L2/weights", "op": "Const", "attr": {"value": {"tensor": {"dtype": "DT_FLOAT", "tensorShape": {"dim": [{"size": "7"}, {"size": "7"}, {"size": "185"}, {"size": "128"}]}}}, "dtype": {"type": "DT_FLOAT"}}}, {"name": "Mconv5_stage6_L1/weights", "op": "Const", "attr": {"value": {"tensor": {"dtype": "DT_FLOAT", "tensorShape": {"dim": [{"size": "7"}, {"size": "7"}, {"size": "128"}, {"size": "128"}]}}}, "dtype": {"type": "DT_FLOAT"}}}, {"name": "Mconv1_stage4_L2/biases", "op": "Const", "attr": {"value": {"tensor": {"dtype": "DT_FLOAT", "tensorShape": {"dim": [{"size": "128"}]}}}, "dtype": {"type": "DT_FLOAT"}}}, {"name": "Mconv2_stage4_L2/weights", "op": "Const", "attr": {"value": {"tensor": {"dtype": "DT_FLOAT", "tensorShape": {"dim": [{"size": "7"}, {"size": "7"}, {"size": "128"}, {"size": "128"}]}}}, "dtype": {"type": "DT_FLOAT"}}}, {"name": "Mconv2_stage4_L2/biases", "op": "Const", "attr": {"value": {"tensor": {"dtype": "DT_FLOAT", "tensorShape": {"dim": [{"size": "128"}]}}}, "dtype": {"type": "DT_FLOAT"}}}, {"name": "Mconv5_stage6_L1/biases", "op": "Const", "attr": {"value": {"tensor": {"dtype": "DT_FLOAT", "tensorShape": {"dim": [{"size": "128"}]}}}, "dtype": {"type": "DT_FLOAT"}}}, {"name": "Mconv3_stage4_L2/weights", "op": "Const", "attr": {"value": {"tensor": {"dtype": "DT_FLOAT", "tensorShape": {"dim": [{"size": "7"}, {"size": "7"}, {"size": "128"}, {"size": "128"}]}}}, "dtype": {"type": "DT_FLOAT"}}}, {"name": "Mconv5_stage6_L2/biases", "op": "Const", "attr": {"value": {"tensor": {"dtype": "DT_FLOAT", "tensorShape": {"dim": [{"size": "128"}]}}}, "dtype": {"type": "DT_FLOAT"}}}, {"name": "Mconv3_stage4_L2/biases", "op": "Const", "attr": {"value": {"tensor": {"dtype": "DT_FLOAT", "tensorShape": {"dim": [{"size": "128"}]}}}, "dtype": {"type": "DT_FLOAT"}}}, {"name": "Mconv4_stage4_L2/weights", "op": "Const", "attr": {"value": {"tensor": {"dtype": "DT_FLOAT", "tensorShape": {"dim": [{"size": "7"}, {"size": "7"}, {"size": "128"}, {"size": "128"}]}}}, "dtype": {"type": "DT_FLOAT"}}}, {"name": "Mconv4_stage4_L2/biases", "op": "Const", "attr": {"value": {"tensor": {"dtype": "DT_FLOAT", "tensorShape": {"dim": [{"size": "128"}]}}}, "dtype": {"type": "DT_FLOAT"}}}, {"name": "Mconv6_stage6_L1/weights", "op": "Const", "attr": {"value": {"tensor": {"dtype": "DT_FLOAT", "tensorShape": {"dim": [{"size": "1"}, {"size": "1"}, {"size": "128"}, {"size": "128"}]}}}, "dtype": {"type": "DT_FLOAT"}}}, {"name": "Mconv5_stage4_L2/weights", "op": "Const", "attr": {"value": {"tensor": {"dtype": "DT_FLOAT", "tensorShape": {"dim": [{"size": "7"}, {"size": "7"}, {"size": "128"}, {"size": "128"}]}}}, "dtype": {"type": "DT_FLOAT"}}}, {"name": "Mconv7_stage6_L2/biases", "op": "Const", "attr": {"value": {"tensor": {"dtype": "DT_FLOAT", "tensorShape": {"dim": [{"size": "19"}]}}}, "dtype": {"type": "DT_FLOAT"}}}, {"name": "Mconv5_stage4_L2/biases", "op": "Const", "attr": {"value": {"tensor": {"dtype": "DT_FLOAT", "tensorShape": {"dim": [{"size": "128"}]}}}, "dtype": {"type": "DT_FLOAT"}}}, {"name": "Mconv6_stage4_L2/weights", "op": "Const", "attr": {"value": {"tensor": {"dtype": "DT_FLOAT", "tensorShape": {"dim": [{"size": "1"}, {"size": "1"}, {"size": "128"}, {"size": "128"}]}}}, "dtype": {"type": "DT_FLOAT"}}}, {"name": "Mconv6_stage6_L1/biases", "op": "Const", "attr": {"value": {"tensor": {"dtype": "DT_FLOAT", "tensorShape": {"dim": [{"size": "128"}]}}}, "dtype": {"type": "DT_FLOAT"}}}, {"name": "Mconv6_stage4_L2/biases", "op": "Const", "attr": {"value": {"tensor": {"dtype": "DT_FLOAT", "tensorShape": {"dim": [{"size": "128"}]}}}, "dtype": {"type": "DT_FLOAT"}}}, {"name": "Mconv7_stage4_L2/weights", "op": "Const", "attr": {"value": {"tensor": {"dtype": "DT_FLOAT", "tensorShape": {"dim": [{"size": "1"}, {"size": "1"}, {"size": "128"}, {"size": "19"}]}}}, "dtype": {"type": "DT_FLOAT"}}}, {"name": "Mconv7_stage4_L2/biases", "op": "Const", "attr": {"value": {"tensor": {"dtype": "DT_FLOAT", "tensorShape": {"dim": [{"size": "19"}]}}}, "dtype": {"type": "DT_FLOAT"}}}, {"name": "Mconv1_stage5_L1/weights", "op": "Const", "attr": {"value": {"tensor": {"dtype": "DT_FLOAT", "tensorShape": {"dim": [{"size": "7"}, {"size": "7"}, {"size": "185"}, {"size": "128"}]}}}, "dtype": {"type": "DT_FLOAT"}}}, {"name": "Mconv7_stage6_L1/weights", "op": "Const", "attr": {"value": {"tensor": {"dtype": "DT_FLOAT", "tensorShape": {"dim": [{"size": "1"}, {"size": "1"}, {"size": "128"}, {"size": "38"}]}}}, "dtype": {"type": "DT_FLOAT"}}}, {"name": "Mconv1_stage5_L1/biases", "op": "Const", "attr": {"value": {"tensor": {"dtype": "DT_FLOAT", "tensorShape": {"dim": [{"size": "128"}]}}}, "dtype": {"type": "DT_FLOAT"}}}, {"name": "Mconv2_stage5_L1/weights", "op": "Const", "attr": {"value": {"tensor": {"dtype": "DT_FLOAT", "tensorShape": {"dim": [{"size": "7"}, {"size": "7"}, {"size": "128"}, {"size": "128"}]}}}, "dtype": {"type": "DT_FLOAT"}}}, {"name": "Mconv2_stage5_L1/biases", "op": "Const", "attr": {"value": {"tensor": {"dtype": "DT_FLOAT", "tensorShape": {"dim": [{"size": "128"}]}}}, "dtype": {"type": "DT_FLOAT"}}}, {"name": "Mconv7_stage6_L1/biases", "op": "Const", "attr": {"value": {"tensor": {"dtype": "DT_FLOAT", "tensorShape": {"dim": [{"size": "38"}]}}}, "dtype": {"type": "DT_FLOAT"}}}, {"name": "ConstantFolding/preprocess_divide_recip", "op": "Const", "attr": {"value": {"tensor": {"dtype": "DT_FLOAT", "tensorShape": {}}}, "dtype": {"type": "DT_FLOAT"}}}, {"name": "preprocess_divide", "op": "Mul", "input": ["ConstantFolding/preprocess_divide_recip", "image"], "attr": {"T": {"type": "DT_FLOAT"}}}, {"name": "preprocess_subtract", "op": "Sub", "input": ["preprocess_divide", "preprocess_subtract/y"], "attr": {"T": {"type": "DT_FLOAT"}}}, {"name": "conv1_1/conv1_1", "op": "_FusedConv2D", "input": ["preprocess_subtract", "conv1_1/weights", "conv1_1/biases"], "device": "/device:CPU:0", "attr": {"dilations": {"list": {"i": ["1", "1", "1", "1"]}}, "T": {"type": "DT_FLOAT"}, "data_format": {"s": "TkhXQw=="}, "strides": {"list": {"i": ["1", "1", "1", "1"]}}, "explicit_paddings": {"list": {}}, "use_cudnn_on_gpu": {"b": true}, "num_args": {"i": "1"}, "epsilon": {"f": 0.0}, "padding": {"s": "U0FNRQ=="}, "fused_ops": {"list": {"s": ["Qmlhc0FkZA==", "UmVsdQ=="]}}}}, {"name": "conv1_2/BiasAdd", "op": "_FusedConv2D", "input": ["conv1_1/conv1_1", "conv1_2/weights", "conv1_2/biases"], "device": "/device:CPU:0", "attr": {"dilations": {"list": {"i": ["1", "1", "1", "1"]}}, "T": {"type": "DT_FLOAT"}, "data_format": {"s": "TkhXQw=="}, "strides": {"list": {"i": ["1", "1", "1", "1"]}}, "explicit_paddings": {"list": {}}, "use_cudnn_on_gpu": {"b": true}, "num_args": {"i": "1"}, "epsilon": {"f": 0.0}, "padding": {"s": "U0FNRQ=="}, "fused_ops": {"list": {"s": ["Qmlhc0FkZA=="]}}}}, {"name": "pool1_stage1", "op": "MaxPool", "input": ["conv1_2/BiasAdd"], "attr": {"ksize": {"list": {"i": ["1", "2", "2", "1"]}}, "padding": {"s": "VkFMSUQ="}, "T": {"type": "DT_FLOAT"}, "data_format": {"s": "TkhXQw=="}, "strides": {"list": {"i": ["1", "2", "2", "1"]}}}}, {"name": "conv1_2/conv1_2", "op": "Relu", "input": ["pool1_stage1"], "attr": {"T": {"type": "DT_FLOAT"}}}, {"name": "conv2_1/conv2_1", "op": "_FusedConv2D", "input": ["conv1_2/conv1_2", "conv2_1/weights", "conv2_1/biases"], "device": "/device:CPU:0", "attr": {"dilations": {"list": {"i": ["1", "1", "1", "1"]}}, "T": {"type": "DT_FLOAT"}, "data_format": {"s": "TkhXQw=="}, "strides": {"list": {"i": ["1", "1", "1", "1"]}}, "explicit_paddings": {"list": {}}, "use_cudnn_on_gpu": {"b": true}, "num_args": {"i": "1"}, "epsilon": {"f": 0.0}, "padding": {"s": "U0FNRQ=="}, "fused_ops": {"list": {"s": ["Qmlhc0FkZA==", "UmVsdQ=="]}}}}, {"name": "conv2_2/BiasAdd", "op": "_FusedConv2D", "input": ["conv2_1/conv2_1", "conv2_2/weights", "conv2_2/biases"], "device": "/device:CPU:0", "attr": {"dilations": {"list": {"i": ["1", "1", "1", "1"]}}, "T": {"type": "DT_FLOAT"}, "data_format": {"s": "TkhXQw=="}, "strides": {"list": {"i": ["1", "1", "1", "1"]}}, "explicit_paddings": {"list": {}}, "use_cudnn_on_gpu": {"b": true}, "num_args": {"i": "1"}, "epsilon": {"f": 0.0}, "padding": {"s": "U0FNRQ=="}, "fused_ops": {"list": {"s": ["Qmlhc0FkZA=="]}}}}, {"name": "pool2_stage1", "op": "MaxPool", "input": ["conv2_2/BiasAdd"], "attr": {"ksize": {"list": {"i": ["1", "2", "2", "1"]}}, "padding": {"s": "VkFMSUQ="}, "T": {"type": "DT_FLOAT"}, "data_format": {"s": "TkhXQw=="}, "strides": {"list": {"i": ["1", "2", "2", "1"]}}}}, {"name": "conv2_2/conv2_2", "op": "Relu", "input": ["pool2_stage1"], "attr": {"T": {"type": "DT_FLOAT"}}}, {"name": "conv3_1/conv3_1", "op": "_FusedConv2D", "input": ["conv2_2/conv2_2", "conv3_1/weights", "conv3_1/biases"], "device": "/device:CPU:0", "attr": {"dilations": {"list": {"i": ["1", "1", "1", "1"]}}, "T": {"type": "DT_FLOAT"}, "data_format": {"s": "TkhXQw=="}, "strides": {"list": {"i": ["1", "1", "1", "1"]}}, "explicit_paddings": {"list": {}}, "use_cudnn_on_gpu": {"b": true}, "num_args": {"i": "1"}, "epsilon": {"f": 0.0}, "padding": {"s": "U0FNRQ=="}, "fused_ops": {"list": {"s": ["Qmlhc0FkZA==", "UmVsdQ=="]}}}}, {"name": "conv3_2/conv3_2", "op": "_FusedConv2D", "input": ["conv3_1/conv3_1", "conv3_2/weights", "conv3_2/biases"], "device": "/device:CPU:0", "attr": {"dilations": {"list": {"i": ["1", "1", "1", "1"]}}, "T": {"type": "DT_FLOAT"}, "data_format": {"s": "TkhXQw=="}, "strides": {"list": {"i": ["1", "1", "1", "1"]}}, "explicit_paddings": {"list": {}}, "use_cudnn_on_gpu": {"b": true}, "num_args": {"i": "1"}, "epsilon": {"f": 0.0}, "padding": {"s": "U0FNRQ=="}, "fused_ops": {"list": {"s": ["Qmlhc0FkZA==", "UmVsdQ=="]}}}}, {"name": "conv3_3/conv3_3", "op": "_FusedConv2D", "input": ["conv3_2/conv3_2", "conv3_3/weights", "conv3_3/biases"], "device": "/device:CPU:0", "attr": {"dilations": {"list": {"i": ["1", "1", "1", "1"]}}, "T": {"type": "DT_FLOAT"}, "data_format": {"s": "TkhXQw=="}, "strides": {"list": {"i": ["1", "1", "1", "1"]}}, "explicit_paddings": {"list": {}}, "use_cudnn_on_gpu": {"b": true}, "num_args": {"i": "1"}, "epsilon": {"f": 0.0}, "padding": {"s": "U0FNRQ=="}, "fused_ops": {"list": {"s": ["Qmlhc0FkZA==", "UmVsdQ=="]}}}}, {"name": "conv3_4/BiasAdd", "op": "_FusedConv2D", "input": ["conv3_3/conv3_3", "conv3_4/weights", "conv3_4/biases"], "device": "/device:CPU:0", "attr": {"dilations": {"list": {"i": ["1", "1", "1", "1"]}}, "T": {"type": "DT_FLOAT"}, "data_format": {"s": "TkhXQw=="}, "strides": {"list": {"i": ["1", "1", "1", "1"]}}, "explicit_paddings": {"list": {}}, "use_cudnn_on_gpu": {"b": true}, "num_args": {"i": "1"}, "epsilon": {"f": 0.0}, "padding": {"s": "U0FNRQ=="}, "fused_ops": {"list": {"s": ["Qmlhc0FkZA=="]}}}}, {"name": "pool3_stage1", "op": "MaxPool", "input": ["conv3_4/BiasAdd"], "attr": {"ksize": {"list": {"i": ["1", "2", "2", "1"]}}, "padding": {"s": "VkFMSUQ="}, "T": {"type": "DT_FLOAT"}, "data_format": {"s": "TkhXQw=="}, "strides": {"list": {"i": ["1", "2", "2", "1"]}}}}, {"name": "conv3_4/conv3_4", "op": "Relu", "input": ["pool3_stage1"], "attr": {"T": {"type": "DT_FLOAT"}}}, {"name": "conv4_1/conv4_1", "op": "_FusedConv2D", "input": ["conv3_4/conv3_4", "conv4_1/weights", "conv4_1/biases"], "device": "/device:CPU:0", "attr": {"dilations": {"list": {"i": ["1", "1", "1", "1"]}}, "T": {"type": "DT_FLOAT"}, "data_format": {"s": "TkhXQw=="}, "strides": {"list": {"i": ["1", "1", "1", "1"]}}, "explicit_paddings": {"list": {}}, "use_cudnn_on_gpu": {"b": true}, "num_args": {"i": "1"}, "epsilon": {"f": 0.0}, "padding": {"s": "U0FNRQ=="}, "fused_ops": {"list": {"s": ["Qmlhc0FkZA==", "UmVsdQ=="]}}}}, {"name": "conv4_2/conv4_2", "op": "_FusedConv2D", "input": ["conv4_1/conv4_1", "conv4_2/weights", "conv4_2/biases"], "device": "/device:CPU:0", "attr": {"dilations": {"list": {"i": ["1", "1", "1", "1"]}}, "T": {"type": "DT_FLOAT"}, "data_format": {"s": "TkhXQw=="}, "strides": {"list": {"i": ["1", "1", "1", "1"]}}, "explicit_paddings": {"list": {}}, "use_cudnn_on_gpu": {"b": true}, "num_args": {"i": "1"}, "epsilon": {"f": 0.0}, "padding": {"s": "U0FNRQ=="}, "fused_ops": {"list": {"s": ["Qmlhc0FkZA==", "UmVsdQ=="]}}}}, {"name": "conv4_3_CPM/conv4_3_CPM", "op": "_FusedConv2D", "input": ["conv4_2/conv4_2", "conv4_3_CPM/weights", "conv4_3_CPM/biases"], "device": "/device:CPU:0", "attr": {"dilations": {"list": {"i": ["1", "1", "1", "1"]}}, "T": {"type": "DT_FLOAT"}, "data_format": {"s": "TkhXQw=="}, "strides": {"list": {"i": ["1", "1", "1", "1"]}}, "explicit_paddings": {"list": {}}, "use_cudnn_on_gpu": {"b": true}, "num_args": {"i": "1"}, "epsilon": {"f": 0.0}, "padding": {"s": "U0FNRQ=="}, "fused_ops": {"list": {"s": ["Qmlhc0FkZA==", "UmVsdQ=="]}}}}, {"name": "conv4_4_CPM/conv4_4_CPM", "op": "_FusedConv2D", "input": ["conv4_3_CPM/conv4_3_CPM", "conv4_4_CPM/weights", "conv4_4_CPM/biases"], "device": "/device:CPU:0", "attr": {"dilations": {"list": {"i": ["1", "1", "1", "1"]}}, "T": {"type": "DT_FLOAT"}, "data_format": {"s": "TkhXQw=="}, "strides": {"list": {"i": ["1", "1", "1", "1"]}}, "explicit_paddings": {"list": {}}, "use_cudnn_on_gpu": {"b": true}, "num_args": {"i": "1"}, "epsilon": {"f": 0.0}, "padding": {"s": "U0FNRQ=="}, "fused_ops": {"list": {"s": ["Qmlhc0FkZA==", "UmVsdQ=="]}}}}, {"name": "conv5_1_CPM_L1/conv5_1_CPM_L1", "op": "_FusedConv2D", "input": ["conv4_4_CPM/conv4_4_CPM", "conv5_1_CPM_L1/weights", "conv5_1_CPM_L1/biases"], "device": "/device:CPU:0", "attr": {"dilations": {"list": {"i": ["1", "1", "1", "1"]}}, "T": {"type": "DT_FLOAT"}, "data_format": {"s": "TkhXQw=="}, "strides": {"list": {"i": ["1", "1", "1", "1"]}}, "explicit_paddings": {"list": {}}, "use_cudnn_on_gpu": {"b": true}, "num_args": {"i": "1"}, "epsilon": {"f": 0.0}, "padding": {"s": "U0FNRQ=="}, "fused_ops": {"list": {"s": ["Qmlhc0FkZA==", "UmVsdQ=="]}}}}, {"name": "conv5_1_CPM_L2/conv5_1_CPM_L2", "op": "_FusedConv2D", "input": ["conv4_4_CPM/conv4_4_CPM", "conv5_1_CPM_L2/weights", "conv5_1_CPM_L2/biases"], "device": "/device:CPU:0", "attr": {"dilations": {"list": {"i": ["1", "1", "1", "1"]}}, "T": {"type": "DT_FLOAT"}, "data_format": {"s": "TkhXQw=="}, "strides": {"list": {"i": ["1", "1", "1", "1"]}}, "explicit_paddings": {"list": {}}, "use_cudnn_on_gpu": {"b": true}, "num_args": {"i": "1"}, "epsilon": {"f": 0.0}, "padding": {"s": "U0FNRQ=="}, "fused_ops": {"list": {"s": ["Qmlhc0FkZA==", "UmVsdQ=="]}}}}, {"name": "conv5_2_CPM_L1/conv5_2_CPM_L1", "op": "_FusedConv2D", "input": ["conv5_1_CPM_L1/conv5_1_CPM_L1", "conv5_2_CPM_L1/weights", "conv5_2_CPM_L1/biases"], "device": "/device:CPU:0", "attr": {"dilations": {"list": {"i": ["1", "1", "1", "1"]}}, "T": {"type": "DT_FLOAT"}, "data_format": {"s": "TkhXQw=="}, "strides": {"list": {"i": ["1", "1", "1", "1"]}}, "explicit_paddings": {"list": {}}, "use_cudnn_on_gpu": {"b": true}, "num_args": {"i": "1"}, "epsilon": {"f": 0.0}, "padding": {"s": "U0FNRQ=="}, "fused_ops": {"list": {"s": ["Qmlhc0FkZA==", "UmVsdQ=="]}}}}, {"name": "conv5_2_CPM_L2/conv5_2_CPM_L2", "op": "_FusedConv2D", "input": ["conv5_1_CPM_L2/conv5_1_CPM_L2", "conv5_2_CPM_L2/weights", "conv5_2_CPM_L2/biases"], "device": "/device:CPU:0", "attr": {"dilations": {"list": {"i": ["1", "1", "1", "1"]}}, "T": {"type": "DT_FLOAT"}, "data_format": {"s": "TkhXQw=="}, "strides": {"list": {"i": ["1", "1", "1", "1"]}}, "explicit_paddings": {"list": {}}, "use_cudnn_on_gpu": {"b": true}, "num_args": {"i": "1"}, "epsilon": {"f": 0.0}, "padding": {"s": "U0FNRQ=="}, "fused_ops": {"list": {"s": ["Qmlhc0FkZA==", "UmVsdQ=="]}}}}, {"name": "conv5_3_CPM_L1/conv5_3_CPM_L1", "op": "_FusedConv2D", "input": ["conv5_2_CPM_L1/conv5_2_CPM_L1", "conv5_3_CPM_L1/weights", "conv5_3_CPM_L1/biases"], "device": "/device:CPU:0", "attr": {"dilations": {"list": {"i": ["1", "1", "1", "1"]}}, "T": {"type": "DT_FLOAT"}, "data_format": {"s": "TkhXQw=="}, "strides": {"list": {"i": ["1", "1", "1", "1"]}}, "explicit_paddings": {"list": {}}, "use_cudnn_on_gpu": {"b": true}, "num_args": {"i": "1"}, "epsilon": {"f": 0.0}, "padding": {"s": "U0FNRQ=="}, "fused_ops": {"list": {"s": ["Qmlhc0FkZA==", "UmVsdQ=="]}}}}, {"name": "conv5_3_CPM_L2/conv5_3_CPM_L2", "op": "_FusedConv2D", "input": ["conv5_2_CPM_L2/conv5_2_CPM_L2", "conv5_3_CPM_L2/weights", "conv5_3_CPM_L2/biases"], "device": "/device:CPU:0", "attr": {"dilations": {"list": {"i": ["1", "1", "1", "1"]}}, "T": {"type": "DT_FLOAT"}, "data_format": {"s": "TkhXQw=="}, "strides": {"list": {"i": ["1", "1", "1", "1"]}}, "explicit_paddings": {"list": {}}, "use_cudnn_on_gpu": {"b": true}, "num_args": {"i": "1"}, "epsilon": {"f": 0.0}, "padding": {"s": "U0FNRQ=="}, "fused_ops": {"list": {"s": ["Qmlhc0FkZA==", "UmVsdQ=="]}}}}, {"name": "conv5_4_CPM_L1/conv5_4_CPM_L1", "op": "_FusedConv2D", "input": ["conv5_3_CPM_L1/conv5_3_CPM_L1", "conv5_4_CPM_L1/weights", "conv5_4_CPM_L1/biases"], "device": "/device:CPU:0", "attr": {"dilations": {"list": {"i": ["1", "1", "1", "1"]}}, "T": {"type": "DT_FLOAT"}, "data_format": {"s": "TkhXQw=="}, "strides": {"list": {"i": ["1", "1", "1", "1"]}}, "explicit_paddings": {"list": {}}, "use_cudnn_on_gpu": {"b": true}, "num_args": {"i": "1"}, "epsilon": {"f": 0.0}, "padding": {"s": "U0FNRQ=="}, "fused_ops": {"list": {"s": ["Qmlhc0FkZA==", "UmVsdQ=="]}}}}, {"name": "conv5_4_CPM_L2/conv5_4_CPM_L2", "op": "_FusedConv2D", "input": ["conv5_3_CPM_L2/conv5_3_CPM_L2", "conv5_4_CPM_L2/weights", "conv5_4_CPM_L2/biases"], "device": "/device:CPU:0", "attr": {"dilations": {"list": {"i": ["1", "1", "1", "1"]}}, "T": {"type": "DT_FLOAT"}, "data_format": {"s": "TkhXQw=="}, "strides": {"list": {"i": ["1", "1", "1", "1"]}}, "explicit_paddings": {"list": {}}, "use_cudnn_on_gpu": {"b": true}, "num_args": {"i": "1"}, "epsilon": {"f": 0.0}, "padding": {"s": "U0FNRQ=="}, "fused_ops": {"list": {"s": ["Qmlhc0FkZA==", "UmVsdQ=="]}}}}, {"name": "conv5_5_CPM_L1/BiasAdd", "op": "_FusedConv2D", "input": ["conv5_4_CPM_L1/conv5_4_CPM_L1", "conv5_5_CPM_L1/weights", "conv5_5_CPM_L1/biases"], "device": "/device:CPU:0", "attr": {"dilations": {"list": {"i": ["1", "1", "1", "1"]}}, "T": {"type": "DT_FLOAT"}, "data_format": {"s": "TkhXQw=="}, "strides": {"list": {"i": ["1", "1", "1", "1"]}}, "explicit_paddings": {"list": {}}, "use_cudnn_on_gpu": {"b": true}, "num_args": {"i": "1"}, "epsilon": {"f": 0.0}, "padding": {"s": "U0FNRQ=="}, "fused_ops": {"list": {"s": ["Qmlhc0FkZA=="]}}}}, {"name": "conv5_5_CPM_L2/BiasAdd", "op": "_FusedConv2D", "input": ["conv5_4_CPM_L2/conv5_4_CPM_L2", "conv5_5_CPM_L2/weights", "conv5_5_CPM_L2/biases"], "device": "/device:CPU:0", "attr": {"dilations": {"list": {"i": ["1", "1", "1", "1"]}}, "T": {"type": "DT_FLOAT"}, "data_format": {"s": "TkhXQw=="}, "strides": {"list": {"i": ["1", "1", "1", "1"]}}, "explicit_paddings": {"list": {}}, "use_cudnn_on_gpu": {"b": true}, "num_args": {"i": "1"}, "epsilon": {"f": 0.0}, "padding": {"s": "U0FNRQ=="}, "fused_ops": {"list": {"s": ["Qmlhc0FkZA=="]}}}}, {"name": "concat_stage2", "op": "ConcatV2", "input": ["conv5_5_CPM_L1/BiasAdd", "conv5_5_CPM_L2/BiasAdd", "conv4_4_CPM/conv4_4_CPM", "concat_stage2/axis"], "attr": {"Tidx": {"type": "DT_INT32"}, "T": {"type": "DT_FLOAT"}, "N": {"i": "3"}}}, {"name": "Mconv1_stage2_L1/Mconv1_stage2_L1", "op": "_FusedConv2D", "input": ["concat_stage2", "Mconv1_stage2_L1/weights", "Mconv1_stage2_L1/biases"], "device": "/device:CPU:0", "attr": {"dilations": {"list": {"i": ["1", "1", "1", "1"]}}, "T": {"type": "DT_FLOAT"}, "data_format": {"s": "TkhXQw=="}, "strides": {"list": {"i": ["1", "1", "1", "1"]}}, "explicit_paddings": {"list": {}}, "use_cudnn_on_gpu": {"b": true}, "num_args": {"i": "1"}, "epsilon": {"f": 0.0}, "padding": {"s": "U0FNRQ=="}, "fused_ops": {"list": {"s": ["Qmlhc0FkZA==", "UmVsdQ=="]}}}}, {"name": "Mconv1_stage2_L2/Mconv1_stage2_L2", "op": "_FusedConv2D", "input": ["concat_stage2", "Mconv1_stage2_L2/weights", "Mconv1_stage2_L2/biases"], "device": "/device:CPU:0", "attr": {"dilations": {"list": {"i": ["1", "1", "1", "1"]}}, "T": {"type": "DT_FLOAT"}, "data_format": {"s": "TkhXQw=="}, "strides": {"list": {"i": ["1", "1", "1", "1"]}}, "explicit_paddings": {"list": {}}, "use_cudnn_on_gpu": {"b": true}, "num_args": {"i": "1"}, "epsilon": {"f": 0.0}, "padding": {"s": "U0FNRQ=="}, "fused_ops": {"list": {"s": ["Qmlhc0FkZA==", "UmVsdQ=="]}}}}, {"name": "Mconv2_stage2_L1/Mconv2_stage2_L1", "op": "_FusedConv2D", "input": ["Mconv1_stage2_L1/Mconv1_stage2_L1", "Mconv2_stage2_L1/weights", "Mconv2_stage2_L1/biases"], "device": "/device:CPU:0", "attr": {"dilations": {"list": {"i": ["1", "1", "1", "1"]}}, "T": {"type": "DT_FLOAT"}, "data_format": {"s": "TkhXQw=="}, "strides": {"list": {"i": ["1", "1", "1", "1"]}}, "explicit_paddings": {"list": {}}, "use_cudnn_on_gpu": {"b": true}, "num_args": {"i": "1"}, "epsilon": {"f": 0.0}, "padding": {"s": "U0FNRQ=="}, "fused_ops": {"list": {"s": ["Qmlhc0FkZA==", "UmVsdQ=="]}}}}, {"name": "Mconv2_stage2_L2/Mconv2_stage2_L2", "op": "_FusedConv2D", "input": ["Mconv1_stage2_L2/Mconv1_stage2_L2", "Mconv2_stage2_L2/weights", "Mconv2_stage2_L2/biases"], "device": "/device:CPU:0", "attr": {"dilations": {"list": {"i": ["1", "1", "1", "1"]}}, "T": {"type": "DT_FLOAT"}, "data_format": {"s": "TkhXQw=="}, "strides": {"list": {"i": ["1", "1", "1", "1"]}}, "explicit_paddings": {"list": {}}, "use_cudnn_on_gpu": {"b": true}, "num_args": {"i": "1"}, "epsilon": {"f": 0.0}, "padding": {"s": "U0FNRQ=="}, "fused_ops": {"list": {"s": ["Qmlhc0FkZA==", "UmVsdQ=="]}}}}, {"name": "Mconv3_stage2_L1/Mconv3_stage2_L1", "op": "_FusedConv2D", "input": ["Mconv2_stage2_L1/Mconv2_stage2_L1", "Mconv3_stage2_L1/weights", "Mconv3_stage2_L1/biases"], "device": "/device:CPU:0", "attr": {"dilations": {"list": {"i": ["1", "1", "1", "1"]}}, "T": {"type": "DT_FLOAT"}, "data_format": {"s": "TkhXQw=="}, "strides": {"list": {"i": ["1", "1", "1", "1"]}}, "explicit_paddings": {"list": {}}, "use_cudnn_on_gpu": {"b": true}, "num_args": {"i": "1"}, "epsilon": {"f": 0.0}, "padding": {"s": "U0FNRQ=="}, "fused_ops": {"list": {"s": ["Qmlhc0FkZA==", "UmVsdQ=="]}}}}, {"name": "Mconv3_stage2_L2/Mconv3_stage2_L2", "op": "_FusedConv2D", "input": ["Mconv2_stage2_L2/Mconv2_stage2_L2", "Mconv3_stage2_L2/weights", "Mconv3_stage2_L2/biases"], "device": "/device:CPU:0", "attr": {"dilations": {"list": {"i": ["1", "1", "1", "1"]}}, "T": {"type": "DT_FLOAT"}, "data_format": {"s": "TkhXQw=="}, "strides": {"list": {"i": ["1", "1", "1", "1"]}}, "explicit_paddings": {"list": {}}, "use_cudnn_on_gpu": {"b": true}, "num_args": {"i": "1"}, "epsilon": {"f": 0.0}, "padding": {"s": "U0FNRQ=="}, "fused_ops": {"list": {"s": ["Qmlhc0FkZA==", "UmVsdQ=="]}}}}, {"name": "Mconv4_stage2_L1/Mconv4_stage2_L1", "op": "_FusedConv2D", "input": ["Mconv3_stage2_L1/Mconv3_stage2_L1", "Mconv4_stage2_L1/weights", "Mconv4_stage2_L1/biases"], "device": "/device:CPU:0", "attr": {"dilations": {"list": {"i": ["1", "1", "1", "1"]}}, "T": {"type": "DT_FLOAT"}, "data_format": {"s": "TkhXQw=="}, "strides": {"list": {"i": ["1", "1", "1", "1"]}}, "explicit_paddings": {"list": {}}, "use_cudnn_on_gpu": {"b": true}, "num_args": {"i": "1"}, "epsilon": {"f": 0.0}, "padding": {"s": "U0FNRQ=="}, "fused_ops": {"list": {"s": ["Qmlhc0FkZA==", "UmVsdQ=="]}}}}, {"name": "Mconv4_stage2_L2/Mconv4_stage2_L2", "op": "_FusedConv2D", "input": ["Mconv3_stage2_L2/Mconv3_stage2_L2", "Mconv4_stage2_L2/weights", "Mconv4_stage2_L2/biases"], "device": "/device:CPU:0", "attr": {"dilations": {"list": {"i": ["1", "1", "1", "1"]}}, "T": {"type": "DT_FLOAT"}, "data_format": {"s": "TkhXQw=="}, "strides": {"list": {"i": ["1", "1", "1", "1"]}}, "explicit_paddings": {"list": {}}, "use_cudnn_on_gpu": {"b": true}, "num_args": {"i": "1"}, "epsilon": {"f": 0.0}, "padding": {"s": "U0FNRQ=="}, "fused_ops": {"list": {"s": ["Qmlhc0FkZA==", "UmVsdQ=="]}}}}, {"name": "Mconv5_stage2_L1/Mconv5_stage2_L1", "op": "_FusedConv2D", "input": ["Mconv4_stage2_L1/Mconv4_stage2_L1", "Mconv5_stage2_L1/weights", "Mconv5_stage2_L1/biases"], "device": "/device:CPU:0", "attr": {"dilations": {"list": {"i": ["1", "1", "1", "1"]}}, "T": {"type": "DT_FLOAT"}, "data_format": {"s": "TkhXQw=="}, "strides": {"list": {"i": ["1", "1", "1", "1"]}}, "explicit_paddings": {"list": {}}, "use_cudnn_on_gpu": {"b": true}, "num_args": {"i": "1"}, "epsilon": {"f": 0.0}, "padding": {"s": "U0FNRQ=="}, "fused_ops": {"list": {"s": ["Qmlhc0FkZA==", "UmVsdQ=="]}}}}, {"name": "Mconv5_stage2_L2/Mconv5_stage2_L2", "op": "_FusedConv2D", "input": ["Mconv4_stage2_L2/Mconv4_stage2_L2", "Mconv5_stage2_L2/weights", "Mconv5_stage2_L2/biases"], "device": "/device:CPU:0", "attr": {"dilations": {"list": {"i": ["1", "1", "1", "1"]}}, "T": {"type": "DT_FLOAT"}, "data_format": {"s": "TkhXQw=="}, "strides": {"list": {"i": ["1", "1", "1", "1"]}}, "explicit_paddings": {"list": {}}, "use_cudnn_on_gpu": {"b": true}, "num_args": {"i": "1"}, "epsilon": {"f": 0.0}, "padding": {"s": "U0FNRQ=="}, "fused_ops": {"list": {"s": ["Qmlhc0FkZA==", "UmVsdQ=="]}}}}, {"name": "Mconv6_stage2_L1/Mconv6_stage2_L1", "op": "_FusedConv2D", "input": ["Mconv5_stage2_L1/Mconv5_stage2_L1", "Mconv6_stage2_L1/weights", "Mconv6_stage2_L1/biases"], "device": "/device:CPU:0", "attr": {"dilations": {"list": {"i": ["1", "1", "1", "1"]}}, "T": {"type": "DT_FLOAT"}, "data_format": {"s": "TkhXQw=="}, "strides": {"list": {"i": ["1", "1", "1", "1"]}}, "explicit_paddings": {"list": {}}, "use_cudnn_on_gpu": {"b": true}, "num_args": {"i": "1"}, "epsilon": {"f": 0.0}, "padding": {"s": "U0FNRQ=="}, "fused_ops": {"list": {"s": ["Qmlhc0FkZA==", "UmVsdQ=="]}}}}, {"name": "Mconv6_stage2_L2/Mconv6_stage2_L2", "op": "_FusedConv2D", "input": ["Mconv5_stage2_L2/Mconv5_stage2_L2", "Mconv6_stage2_L2/weights", "Mconv6_stage2_L2/biases"], "device": "/device:CPU:0", "attr": {"dilations": {"list": {"i": ["1", "1", "1", "1"]}}, "T": {"type": "DT_FLOAT"}, "data_format": {"s": "TkhXQw=="}, "strides": {"list": {"i": ["1", "1", "1", "1"]}}, "explicit_paddings": {"list": {}}, "use_cudnn_on_gpu": {"b": true}, "num_args": {"i": "1"}, "epsilon": {"f": 0.0}, "padding": {"s": "U0FNRQ=="}, "fused_ops": {"list": {"s": ["Qmlhc0FkZA==", "UmVsdQ=="]}}}}, {"name": "Mconv7_stage2_L1/BiasAdd", "op": "_FusedConv2D", "input": ["Mconv6_stage2_L1/Mconv6_stage2_L1", "Mconv7_stage2_L1/weights", "Mconv7_stage2_L1/biases"], "device": "/device:CPU:0", "attr": {"dilations": {"list": {"i": ["1", "1", "1", "1"]}}, "T": {"type": "DT_FLOAT"}, "data_format": {"s": "TkhXQw=="}, "strides": {"list": {"i": ["1", "1", "1", "1"]}}, "explicit_paddings": {"list": {}}, "use_cudnn_on_gpu": {"b": true}, "num_args": {"i": "1"}, "epsilon": {"f": 0.0}, "padding": {"s": "U0FNRQ=="}, "fused_ops": {"list": {"s": ["Qmlhc0FkZA=="]}}}}, {"name": "Mconv7_stage2_L2/BiasAdd", "op": "_FusedConv2D", "input": ["Mconv6_stage2_L2/Mconv6_stage2_L2", "Mconv7_stage2_L2/weights", "Mconv7_stage2_L2/biases"], "device": "/device:CPU:0", "attr": {"dilations": {"list": {"i": ["1", "1", "1", "1"]}}, "T": {"type": "DT_FLOAT"}, "data_format": {"s": "TkhXQw=="}, "strides": {"list": {"i": ["1", "1", "1", "1"]}}, "explicit_paddings": {"list": {}}, "use_cudnn_on_gpu": {"b": true}, "num_args": {"i": "1"}, "epsilon": {"f": 0.0}, "padding": {"s": "U0FNRQ=="}, "fused_ops": {"list": {"s": ["Qmlhc0FkZA=="]}}}}, {"name": "concat_stage3", "op": "ConcatV2", "input": ["Mconv7_stage2_L1/BiasAdd", "Mconv7_stage2_L2/BiasAdd", "conv4_4_CPM/conv4_4_CPM", "concat_stage2/axis"], "attr": {"Tidx": {"type": "DT_INT32"}, "T": {"type": "DT_FLOAT"}, "N": {"i": "3"}}}, {"name": "Mconv1_stage3_L1/Mconv1_stage3_L1", "op": "_FusedConv2D", "input": ["concat_stage3", "Mconv1_stage3_L1/weights", "Mconv1_stage3_L1/biases"], "device": "/device:CPU:0", "attr": {"dilations": {"list": {"i": ["1", "1", "1", "1"]}}, "T": {"type": "DT_FLOAT"}, "data_format": {"s": "TkhXQw=="}, "strides": {"list": {"i": ["1", "1", "1", "1"]}}, "explicit_paddings": {"list": {}}, "use_cudnn_on_gpu": {"b": true}, "num_args": {"i": "1"}, "epsilon": {"f": 0.0}, "padding": {"s": "U0FNRQ=="}, "fused_ops": {"list": {"s": ["Qmlhc0FkZA==", "UmVsdQ=="]}}}}, {"name": "Mconv1_stage3_L2/Mconv1_stage3_L2", "op": "_FusedConv2D", "input": ["concat_stage3", "Mconv1_stage3_L2/weights", "Mconv1_stage3_L2/biases"], "device": "/device:CPU:0", "attr": {"dilations": {"list": {"i": ["1", "1", "1", "1"]}}, "T": {"type": "DT_FLOAT"}, "data_format": {"s": "TkhXQw=="}, "strides": {"list": {"i": ["1", "1", "1", "1"]}}, "explicit_paddings": {"list": {}}, "use_cudnn_on_gpu": {"b": true}, "num_args": {"i": "1"}, "epsilon": {"f": 0.0}, "padding": {"s": "U0FNRQ=="}, "fused_ops": {"list": {"s": ["Qmlhc0FkZA==", "UmVsdQ=="]}}}}, {"name": "Mconv2_stage3_L1/Mconv2_stage3_L1", "op": "_FusedConv2D", "input": ["Mconv1_stage3_L1/Mconv1_stage3_L1", "Mconv2_stage3_L1/weights", "Mconv2_stage3_L1/biases"], "device": "/device:CPU:0", "attr": {"dilations": {"list": {"i": ["1", "1", "1", "1"]}}, "T": {"type": "DT_FLOAT"}, "data_format": {"s": "TkhXQw=="}, "strides": {"list": {"i": ["1", "1", "1", "1"]}}, "explicit_paddings": {"list": {}}, "use_cudnn_on_gpu": {"b": true}, "num_args": {"i": "1"}, "epsilon": {"f": 0.0}, "padding": {"s": "U0FNRQ=="}, "fused_ops": {"list": {"s": ["Qmlhc0FkZA==", "UmVsdQ=="]}}}}, {"name": "Mconv2_stage3_L2/Mconv2_stage3_L2", "op": "_FusedConv2D", "input": ["Mconv1_stage3_L2/Mconv1_stage3_L2", "Mconv2_stage3_L2/weights", "Mconv2_stage3_L2/biases"], "device": "/device:CPU:0", "attr": {"dilations": {"list": {"i": ["1", "1", "1", "1"]}}, "T": {"type": "DT_FLOAT"}, "data_format": {"s": "TkhXQw=="}, "strides": {"list": {"i": ["1", "1", "1", "1"]}}, "explicit_paddings": {"list": {}}, "use_cudnn_on_gpu": {"b": true}, "num_args": {"i": "1"}, "epsilon": {"f": 0.0}, "padding": {"s": "U0FNRQ=="}, "fused_ops": {"list": {"s": ["Qmlhc0FkZA==", "UmVsdQ=="]}}}}, {"name": "Mconv3_stage3_L1/Mconv3_stage3_L1", "op": "_FusedConv2D", "input": ["Mconv2_stage3_L1/Mconv2_stage3_L1", "Mconv3_stage3_L1/weights", "Mconv3_stage3_L1/biases"], "device": "/device:CPU:0", "attr": {"dilations": {"list": {"i": ["1", "1", "1", "1"]}}, "T": {"type": "DT_FLOAT"}, "data_format": {"s": "TkhXQw=="}, "strides": {"list": {"i": ["1", "1", "1", "1"]}}, "explicit_paddings": {"list": {}}, "use_cudnn_on_gpu": {"b": true}, "num_args": {"i": "1"}, "epsilon": {"f": 0.0}, "padding": {"s": "U0FNRQ=="}, "fused_ops": {"list": {"s": ["Qmlhc0FkZA==", "UmVsdQ=="]}}}}, {"name": "Mconv3_stage3_L2/Mconv3_stage3_L2", "op": "_FusedConv2D", "input": ["Mconv2_stage3_L2/Mconv2_stage3_L2", "Mconv3_stage3_L2/weights", "Mconv3_stage3_L2/biases"], "device": "/device:CPU:0", "attr": {"dilations": {"list": {"i": ["1", "1", "1", "1"]}}, "T": {"type": "DT_FLOAT"}, "data_format": {"s": "TkhXQw=="}, "strides": {"list": {"i": ["1", "1", "1", "1"]}}, "explicit_paddings": {"list": {}}, "use_cudnn_on_gpu": {"b": true}, "num_args": {"i": "1"}, "epsilon": {"f": 0.0}, "padding": {"s": "U0FNRQ=="}, "fused_ops": {"list": {"s": ["Qmlhc0FkZA==", "UmVsdQ=="]}}}}, {"name": "Mconv4_stage3_L1/Mconv4_stage3_L1", "op": "_FusedConv2D", "input": ["Mconv3_stage3_L1/Mconv3_stage3_L1", "Mconv4_stage3_L1/weights", "Mconv4_stage3_L1/biases"], "device": "/device:CPU:0", "attr": {"dilations": {"list": {"i": ["1", "1", "1", "1"]}}, "T": {"type": "DT_FLOAT"}, "data_format": {"s": "TkhXQw=="}, "strides": {"list": {"i": ["1", "1", "1", "1"]}}, "explicit_paddings": {"list": {}}, "use_cudnn_on_gpu": {"b": true}, "num_args": {"i": "1"}, "epsilon": {"f": 0.0}, "padding": {"s": "U0FNRQ=="}, "fused_ops": {"list": {"s": ["Qmlhc0FkZA==", "UmVsdQ=="]}}}}, {"name": "Mconv4_stage3_L2/Mconv4_stage3_L2", "op": "_FusedConv2D", "input": ["Mconv3_stage3_L2/Mconv3_stage3_L2", "Mconv4_stage3_L2/weights", "Mconv4_stage3_L2/biases"], "device": "/device:CPU:0", "attr": {"dilations": {"list": {"i": ["1", "1", "1", "1"]}}, "T": {"type": "DT_FLOAT"}, "data_format": {"s": "TkhXQw=="}, "strides": {"list": {"i": ["1", "1", "1", "1"]}}, "explicit_paddings": {"list": {}}, "use_cudnn_on_gpu": {"b": true}, "num_args": {"i": "1"}, "epsilon": {"f": 0.0}, "padding": {"s": "U0FNRQ=="}, "fused_ops": {"list": {"s": ["Qmlhc0FkZA==", "UmVsdQ=="]}}}}, {"name": "Mconv5_stage3_L1/Mconv5_stage3_L1", "op": "_FusedConv2D", "input": ["Mconv4_stage3_L1/Mconv4_stage3_L1", "Mconv5_stage3_L1/weights", "Mconv5_stage3_L1/biases"], "device": "/device:CPU:0", "attr": {"dilations": {"list": {"i": ["1", "1", "1", "1"]}}, "T": {"type": "DT_FLOAT"}, "data_format": {"s": "TkhXQw=="}, "strides": {"list": {"i": ["1", "1", "1", "1"]}}, "explicit_paddings": {"list": {}}, "use_cudnn_on_gpu": {"b": true}, "num_args": {"i": "1"}, "epsilon": {"f": 0.0}, "padding": {"s": "U0FNRQ=="}, "fused_ops": {"list": {"s": ["Qmlhc0FkZA==", "UmVsdQ=="]}}}}, {"name": "Mconv5_stage3_L2/Mconv5_stage3_L2", "op": "_FusedConv2D", "input": ["Mconv4_stage3_L2/Mconv4_stage3_L2", "Mconv5_stage3_L2/weights", "Mconv5_stage3_L2/biases"], "device": "/device:CPU:0", "attr": {"dilations": {"list": {"i": ["1", "1", "1", "1"]}}, "T": {"type": "DT_FLOAT"}, "data_format": {"s": "TkhXQw=="}, "strides": {"list": {"i": ["1", "1", "1", "1"]}}, "explicit_paddings": {"list": {}}, "use_cudnn_on_gpu": {"b": true}, "num_args": {"i": "1"}, "epsilon": {"f": 0.0}, "padding": {"s": "U0FNRQ=="}, "fused_ops": {"list": {"s": ["Qmlhc0FkZA==", "UmVsdQ=="]}}}}, {"name": "Mconv6_stage3_L1/Mconv6_stage3_L1", "op": "_FusedConv2D", "input": ["Mconv5_stage3_L1/Mconv5_stage3_L1", "Mconv6_stage3_L1/weights", "Mconv6_stage3_L1/biases"], "device": "/device:CPU:0", "attr": {"dilations": {"list": {"i": ["1", "1", "1", "1"]}}, "T": {"type": "DT_FLOAT"}, "data_format": {"s": "TkhXQw=="}, "strides": {"list": {"i": ["1", "1", "1", "1"]}}, "explicit_paddings": {"list": {}}, "use_cudnn_on_gpu": {"b": true}, "num_args": {"i": "1"}, "epsilon": {"f": 0.0}, "padding": {"s": "U0FNRQ=="}, "fused_ops": {"list": {"s": ["Qmlhc0FkZA==", "UmVsdQ=="]}}}}, {"name": "Mconv6_stage3_L2/Mconv6_stage3_L2", "op": "_FusedConv2D", "input": ["Mconv5_stage3_L2/Mconv5_stage3_L2", "Mconv6_stage3_L2/weights", "Mconv6_stage3_L2/biases"], "device": "/device:CPU:0", "attr": {"dilations": {"list": {"i": ["1", "1", "1", "1"]}}, "T": {"type": "DT_FLOAT"}, "data_format": {"s": "TkhXQw=="}, "strides": {"list": {"i": ["1", "1", "1", "1"]}}, "explicit_paddings": {"list": {}}, "use_cudnn_on_gpu": {"b": true}, "num_args": {"i": "1"}, "epsilon": {"f": 0.0}, "padding": {"s": "U0FNRQ=="}, "fused_ops": {"list": {"s": ["Qmlhc0FkZA==", "UmVsdQ=="]}}}}, {"name": "Mconv7_stage3_L1/BiasAdd", "op": "_FusedConv2D", "input": ["Mconv6_stage3_L1/Mconv6_stage3_L1", "Mconv7_stage3_L1/weights", "Mconv7_stage3_L1/biases"], "device": "/device:CPU:0", "attr": {"dilations": {"list": {"i": ["1", "1", "1", "1"]}}, "T": {"type": "DT_FLOAT"}, "data_format": {"s": "TkhXQw=="}, "strides": {"list": {"i": ["1", "1", "1", "1"]}}, "explicit_paddings": {"list": {}}, "use_cudnn_on_gpu": {"b": true}, "num_args": {"i": "1"}, "epsilon": {"f": 0.0}, "padding": {"s": "U0FNRQ=="}, "fused_ops": {"list": {"s": ["Qmlhc0FkZA=="]}}}}, {"name": "Mconv7_stage3_L2/BiasAdd", "op": "_FusedConv2D", "input": ["Mconv6_stage3_L2/Mconv6_stage3_L2", "Mconv7_stage3_L2/weights", "Mconv7_stage3_L2/biases"], "device": "/device:CPU:0", "attr": {"dilations": {"list": {"i": ["1", "1", "1", "1"]}}, "T": {"type": "DT_FLOAT"}, "data_format": {"s": "TkhXQw=="}, "strides": {"list": {"i": ["1", "1", "1", "1"]}}, "explicit_paddings": {"list": {}}, "use_cudnn_on_gpu": {"b": true}, "num_args": {"i": "1"}, "epsilon": {"f": 0.0}, "padding": {"s": "U0FNRQ=="}, "fused_ops": {"list": {"s": ["Qmlhc0FkZA=="]}}}}, {"name": "concat_stage4", "op": "ConcatV2", "input": ["Mconv7_stage3_L1/BiasAdd", "Mconv7_stage3_L2/BiasAdd", "conv4_4_CPM/conv4_4_CPM", "concat_stage2/axis"], "attr": {"Tidx": {"type": "DT_INT32"}, "T": {"type": "DT_FLOAT"}, "N": {"i": "3"}}}, {"name": "Mconv1_stage4_L2/Mconv1_stage4_L2", "op": "_FusedConv2D", "input": ["concat_stage4", "Mconv1_stage4_L2/weights", "Mconv1_stage4_L2/biases"], "device": "/device:CPU:0", "attr": {"dilations": {"list": {"i": ["1", "1", "1", "1"]}}, "T": {"type": "DT_FLOAT"}, "data_format": {"s": "TkhXQw=="}, "strides": {"list": {"i": ["1", "1", "1", "1"]}}, "explicit_paddings": {"list": {}}, "use_cudnn_on_gpu": {"b": true}, "num_args": {"i": "1"}, "epsilon": {"f": 0.0}, "padding": {"s": "U0FNRQ=="}, "fused_ops": {"list": {"s": ["Qmlhc0FkZA==", "UmVsdQ=="]}}}}, {"name": "Mconv1_stage4_L1/Mconv1_stage4_L1", "op": "_FusedConv2D", "input": ["concat_stage4", "Mconv1_stage4_L1/weights", "Mconv1_stage4_L1/biases"], "device": "/device:CPU:0", "attr": {"dilations": {"list": {"i": ["1", "1", "1", "1"]}}, "T": {"type": "DT_FLOAT"}, "data_format": {"s": "TkhXQw=="}, "strides": {"list": {"i": ["1", "1", "1", "1"]}}, "explicit_paddings": {"list": {}}, "use_cudnn_on_gpu": {"b": true}, "num_args": {"i": "1"}, "epsilon": {"f": 0.0}, "padding": {"s": "U0FNRQ=="}, "fused_ops": {"list": {"s": ["Qmlhc0FkZA==", "UmVsdQ=="]}}}}, {"name": "Mconv2_stage4_L2/Mconv2_stage4_L2", "op": "_FusedConv2D", "input": ["Mconv1_stage4_L2/Mconv1_stage4_L2", "Mconv2_stage4_L2/weights", "Mconv2_stage4_L2/biases"], "device": "/device:CPU:0", "attr": {"dilations": {"list": {"i": ["1", "1", "1", "1"]}}, "T": {"type": "DT_FLOAT"}, "data_format": {"s": "TkhXQw=="}, "strides": {"list": {"i": ["1", "1", "1", "1"]}}, "explicit_paddings": {"list": {}}, "use_cudnn_on_gpu": {"b": true}, "num_args": {"i": "1"}, "epsilon": {"f": 0.0}, "padding": {"s": "U0FNRQ=="}, "fused_ops": {"list": {"s": ["Qmlhc0FkZA==", "UmVsdQ=="]}}}}, {"name": "Mconv2_stage4_L1/Mconv2_stage4_L1", "op": "_FusedConv2D", "input": ["Mconv1_stage4_L1/Mconv1_stage4_L1", "Mconv2_stage4_L1/weights", "Mconv2_stage4_L1/biases"], "device": "/device:CPU:0", "attr": {"dilations": {"list": {"i": ["1", "1", "1", "1"]}}, "T": {"type": "DT_FLOAT"}, "data_format": {"s": "TkhXQw=="}, "strides": {"list": {"i": ["1", "1", "1", "1"]}}, "explicit_paddings": {"list": {}}, "use_cudnn_on_gpu": {"b": true}, "num_args": {"i": "1"}, "epsilon": {"f": 0.0}, "padding": {"s": "U0FNRQ=="}, "fused_ops": {"list": {"s": ["Qmlhc0FkZA==", "UmVsdQ=="]}}}}, {"name": "Mconv3_stage4_L2/Mconv3_stage4_L2", "op": "_FusedConv2D", "input": ["Mconv2_stage4_L2/Mconv2_stage4_L2", "Mconv3_stage4_L2/weights", "Mconv3_stage4_L2/biases"], "device": "/device:CPU:0", "attr": {"dilations": {"list": {"i": ["1", "1", "1", "1"]}}, "T": {"type": "DT_FLOAT"}, "data_format": {"s": "TkhXQw=="}, "strides": {"list": {"i": ["1", "1", "1", "1"]}}, "explicit_paddings": {"list": {}}, "use_cudnn_on_gpu": {"b": true}, "num_args": {"i": "1"}, "epsilon": {"f": 0.0}, "padding": {"s": "U0FNRQ=="}, "fused_ops": {"list": {"s": ["Qmlhc0FkZA==", "UmVsdQ=="]}}}}, {"name": "Mconv3_stage4_L1/Mconv3_stage4_L1", "op": "_FusedConv2D", "input": ["Mconv2_stage4_L1/Mconv2_stage4_L1", "Mconv3_stage4_L1/weights", "Mconv3_stage4_L1/biases"], "device": "/device:CPU:0", "attr": {"dilations": {"list": {"i": ["1", "1", "1", "1"]}}, "T": {"type": "DT_FLOAT"}, "data_format": {"s": "TkhXQw=="}, "strides": {"list": {"i": ["1", "1", "1", "1"]}}, "explicit_paddings": {"list": {}}, "use_cudnn_on_gpu": {"b": true}, "num_args": {"i": "1"}, "epsilon": {"f": 0.0}, "padding": {"s": "U0FNRQ=="}, "fused_ops": {"list": {"s": ["Qmlhc0FkZA==", "UmVsdQ=="]}}}}, {"name": "Mconv4_stage4_L2/Mconv4_stage4_L2", "op": "_FusedConv2D", "input": ["Mconv3_stage4_L2/Mconv3_stage4_L2", "Mconv4_stage4_L2/weights", "Mconv4_stage4_L2/biases"], "device": "/device:CPU:0", "attr": {"dilations": {"list": {"i": ["1", "1", "1", "1"]}}, "T": {"type": "DT_FLOAT"}, "data_format": {"s": "TkhXQw=="}, "strides": {"list": {"i": ["1", "1", "1", "1"]}}, "explicit_paddings": {"list": {}}, "use_cudnn_on_gpu": {"b": true}, "num_args": {"i": "1"}, "epsilon": {"f": 0.0}, "padding": {"s": "U0FNRQ=="}, "fused_ops": {"list": {"s": ["Qmlhc0FkZA==", "UmVsdQ=="]}}}}, {"name": "Mconv4_stage4_L1/Mconv4_stage4_L1", "op": "_FusedConv2D", "input": ["Mconv3_stage4_L1/Mconv3_stage4_L1", "Mconv4_stage4_L1/weights", "Mconv4_stage4_L1/biases"], "device": "/device:CPU:0", "attr": {"dilations": {"list": {"i": ["1", "1", "1", "1"]}}, "T": {"type": "DT_FLOAT"}, "data_format": {"s": "TkhXQw=="}, "strides": {"list": {"i": ["1", "1", "1", "1"]}}, "explicit_paddings": {"list": {}}, "use_cudnn_on_gpu": {"b": true}, "num_args": {"i": "1"}, "epsilon": {"f": 0.0}, "padding": {"s": "U0FNRQ=="}, "fused_ops": {"list": {"s": ["Qmlhc0FkZA==", "UmVsdQ=="]}}}}, {"name": "Mconv5_stage4_L2/Mconv5_stage4_L2", "op": "_FusedConv2D", "input": ["Mconv4_stage4_L2/Mconv4_stage4_L2", "Mconv5_stage4_L2/weights", "Mconv5_stage4_L2/biases"], "device": "/device:CPU:0", "attr": {"dilations": {"list": {"i": ["1", "1", "1", "1"]}}, "T": {"type": "DT_FLOAT"}, "data_format": {"s": "TkhXQw=="}, "strides": {"list": {"i": ["1", "1", "1", "1"]}}, "explicit_paddings": {"list": {}}, "use_cudnn_on_gpu": {"b": true}, "num_args": {"i": "1"}, "epsilon": {"f": 0.0}, "padding": {"s": "U0FNRQ=="}, "fused_ops": {"list": {"s": ["Qmlhc0FkZA==", "UmVsdQ=="]}}}}, {"name": "Mconv5_stage4_L1/Mconv5_stage4_L1", "op": "_FusedConv2D", "input": ["Mconv4_stage4_L1/Mconv4_stage4_L1", "Mconv5_stage4_L1/weights", "Mconv5_stage4_L1/biases"], "device": "/device:CPU:0", "attr": {"dilations": {"list": {"i": ["1", "1", "1", "1"]}}, "T": {"type": "DT_FLOAT"}, "data_format": {"s": "TkhXQw=="}, "strides": {"list": {"i": ["1", "1", "1", "1"]}}, "explicit_paddings": {"list": {}}, "use_cudnn_on_gpu": {"b": true}, "num_args": {"i": "1"}, "epsilon": {"f": 0.0}, "padding": {"s": "U0FNRQ=="}, "fused_ops": {"list": {"s": ["Qmlhc0FkZA==", "UmVsdQ=="]}}}}, {"name": "Mconv6_stage4_L2/Mconv6_stage4_L2", "op": "_FusedConv2D", "input": ["Mconv5_stage4_L2/Mconv5_stage4_L2", "Mconv6_stage4_L2/weights", "Mconv6_stage4_L2/biases"], "device": "/device:CPU:0", "attr": {"dilations": {"list": {"i": ["1", "1", "1", "1"]}}, "T": {"type": "DT_FLOAT"}, "data_format": {"s": "TkhXQw=="}, "strides": {"list": {"i": ["1", "1", "1", "1"]}}, "explicit_paddings": {"list": {}}, "use_cudnn_on_gpu": {"b": true}, "num_args": {"i": "1"}, "epsilon": {"f": 0.0}, "padding": {"s": "U0FNRQ=="}, "fused_ops": {"list": {"s": ["Qmlhc0FkZA==", "UmVsdQ=="]}}}}, {"name": "Mconv6_stage4_L1/Mconv6_stage4_L1", "op": "_FusedConv2D", "input": ["Mconv5_stage4_L1/Mconv5_stage4_L1", "Mconv6_stage4_L1/weights", "Mconv6_stage4_L1/biases"], "device": "/device:CPU:0", "attr": {"dilations": {"list": {"i": ["1", "1", "1", "1"]}}, "T": {"type": "DT_FLOAT"}, "data_format": {"s": "TkhXQw=="}, "strides": {"list": {"i": ["1", "1", "1", "1"]}}, "explicit_paddings": {"list": {}}, "use_cudnn_on_gpu": {"b": true}, "num_args": {"i": "1"}, "epsilon": {"f": 0.0}, "padding": {"s": "U0FNRQ=="}, "fused_ops": {"list": {"s": ["Qmlhc0FkZA==", "UmVsdQ=="]}}}}, {"name": "Mconv7_stage4_L2/BiasAdd", "op": "_FusedConv2D", "input": ["Mconv6_stage4_L2/Mconv6_stage4_L2", "Mconv7_stage4_L2/weights", "Mconv7_stage4_L2/biases"], "device": "/device:CPU:0", "attr": {"dilations": {"list": {"i": ["1", "1", "1", "1"]}}, "T": {"type": "DT_FLOAT"}, "data_format": {"s": "TkhXQw=="}, "strides": {"list": {"i": ["1", "1", "1", "1"]}}, "explicit_paddings": {"list": {}}, "use_cudnn_on_gpu": {"b": true}, "num_args": {"i": "1"}, "epsilon": {"f": 0.0}, "padding": {"s": "U0FNRQ=="}, "fused_ops": {"list": {"s": ["Qmlhc0FkZA=="]}}}}, {"name": "Mconv7_stage4_L1/BiasAdd", "op": "_FusedConv2D", "input": ["Mconv6_stage4_L1/Mconv6_stage4_L1", "Mconv7_stage4_L1/weights", "Mconv7_stage4_L1/biases"], "device": "/device:CPU:0", "attr": {"dilations": {"list": {"i": ["1", "1", "1", "1"]}}, "T": {"type": "DT_FLOAT"}, "data_format": {"s": "TkhXQw=="}, "strides": {"list": {"i": ["1", "1", "1", "1"]}}, "explicit_paddings": {"list": {}}, "use_cudnn_on_gpu": {"b": true}, "num_args": {"i": "1"}, "epsilon": {"f": 0.0}, "padding": {"s": "U0FNRQ=="}, "fused_ops": {"list": {"s": ["Qmlhc0FkZA=="]}}}}, {"name": "concat_stage5", "op": "ConcatV2", "input": ["Mconv7_stage4_L1/BiasAdd", "Mconv7_stage4_L2/BiasAdd", "conv4_4_CPM/conv4_4_CPM", "concat_stage2/axis"], "attr": {"Tidx": {"type": "DT_INT32"}, "T": {"type": "DT_FLOAT"}, "N": {"i": "3"}}}, {"name": "Mconv1_stage5_L1/Mconv1_stage5_L1", "op": "_FusedConv2D", "input": ["concat_stage5", "Mconv1_stage5_L1/weights", "Mconv1_stage5_L1/biases"], "device": "/device:CPU:0", "attr": {"dilations": {"list": {"i": ["1", "1", "1", "1"]}}, "T": {"type": "DT_FLOAT"}, "data_format": {"s": "TkhXQw=="}, "strides": {"list": {"i": ["1", "1", "1", "1"]}}, "explicit_paddings": {"list": {}}, "use_cudnn_on_gpu": {"b": true}, "num_args": {"i": "1"}, "epsilon": {"f": 0.0}, "padding": {"s": "U0FNRQ=="}, "fused_ops": {"list": {"s": ["Qmlhc0FkZA==", "UmVsdQ=="]}}}}, {"name": "Mconv1_stage5_L2/Mconv1_stage5_L2", "op": "_FusedConv2D", "input": ["concat_stage5", "Mconv1_stage5_L2/weights", "Mconv1_stage5_L2/biases"], "device": "/device:CPU:0", "attr": {"dilations": {"list": {"i": ["1", "1", "1", "1"]}}, "T": {"type": "DT_FLOAT"}, "data_format": {"s": "TkhXQw=="}, "strides": {"list": {"i": ["1", "1", "1", "1"]}}, "explicit_paddings": {"list": {}}, "use_cudnn_on_gpu": {"b": true}, "num_args": {"i": "1"}, "epsilon": {"f": 0.0}, "padding": {"s": "U0FNRQ=="}, "fused_ops": {"list": {"s": ["Qmlhc0FkZA==", "UmVsdQ=="]}}}}, {"name": "Mconv2_stage5_L1/Mconv2_stage5_L1", "op": "_FusedConv2D", "input": ["Mconv1_stage5_L1/Mconv1_stage5_L1", "Mconv2_stage5_L1/weights", "Mconv2_stage5_L1/biases"], "device": "/device:CPU:0", "attr": {"dilations": {"list": {"i": ["1", "1", "1", "1"]}}, "T": {"type": "DT_FLOAT"}, "data_format": {"s": "TkhXQw=="}, "strides": {"list": {"i": ["1", "1", "1", "1"]}}, "explicit_paddings": {"list": {}}, "use_cudnn_on_gpu": {"b": true}, "num_args": {"i": "1"}, "epsilon": {"f": 0.0}, "padding": {"s": "U0FNRQ=="}, "fused_ops": {"list": {"s": ["Qmlhc0FkZA==", "UmVsdQ=="]}}}}, {"name": "Mconv2_stage5_L2/Mconv2_stage5_L2", "op": "_FusedConv2D", "input": ["Mconv1_stage5_L2/Mconv1_stage5_L2", "Mconv2_stage5_L2/weights", "Mconv2_stage5_L2/biases"], "device": "/device:CPU:0", "attr": {"dilations": {"list": {"i": ["1", "1", "1", "1"]}}, "T": {"type": "DT_FLOAT"}, "data_format": {"s": "TkhXQw=="}, "strides": {"list": {"i": ["1", "1", "1", "1"]}}, "explicit_paddings": {"list": {}}, "use_cudnn_on_gpu": {"b": true}, "num_args": {"i": "1"}, "epsilon": {"f": 0.0}, "padding": {"s": "U0FNRQ=="}, "fused_ops": {"list": {"s": ["Qmlhc0FkZA==", "UmVsdQ=="]}}}}, {"name": "Mconv3_stage5_L1/Mconv3_stage5_L1", "op": "_FusedConv2D", "input": ["Mconv2_stage5_L1/Mconv2_stage5_L1", "Mconv3_stage5_L1/weights", "Mconv3_stage5_L1/biases"], "device": "/device:CPU:0", "attr": {"dilations": {"list": {"i": ["1", "1", "1", "1"]}}, "T": {"type": "DT_FLOAT"}, "data_format": {"s": "TkhXQw=="}, "strides": {"list": {"i": ["1", "1", "1", "1"]}}, "explicit_paddings": {"list": {}}, "use_cudnn_on_gpu": {"b": true}, "num_args": {"i": "1"}, "epsilon": {"f": 0.0}, "padding": {"s": "U0FNRQ=="}, "fused_ops": {"list": {"s": ["Qmlhc0FkZA==", "UmVsdQ=="]}}}}, {"name": "Mconv3_stage5_L2/Mconv3_stage5_L2", "op": "_FusedConv2D", "input": ["Mconv2_stage5_L2/Mconv2_stage5_L2", "Mconv3_stage5_L2/weights", "Mconv3_stage5_L2/biases"], "device": "/device:CPU:0", "attr": {"dilations": {"list": {"i": ["1", "1", "1", "1"]}}, "T": {"type": "DT_FLOAT"}, "data_format": {"s": "TkhXQw=="}, "strides": {"list": {"i": ["1", "1", "1", "1"]}}, "explicit_paddings": {"list": {}}, "use_cudnn_on_gpu": {"b": true}, "num_args": {"i": "1"}, "epsilon": {"f": 0.0}, "padding": {"s": "U0FNRQ=="}, "fused_ops": {"list": {"s": ["Qmlhc0FkZA==", "UmVsdQ=="]}}}}, {"name": "Mconv4_stage5_L1/Mconv4_stage5_L1", "op": "_FusedConv2D", "input": ["Mconv3_stage5_L1/Mconv3_stage5_L1", "Mconv4_stage5_L1/weights", "Mconv4_stage5_L1/biases"], "device": "/device:CPU:0", "attr": {"dilations": {"list": {"i": ["1", "1", "1", "1"]}}, "T": {"type": "DT_FLOAT"}, "data_format": {"s": "TkhXQw=="}, "strides": {"list": {"i": ["1", "1", "1", "1"]}}, "explicit_paddings": {"list": {}}, "use_cudnn_on_gpu": {"b": true}, "num_args": {"i": "1"}, "epsilon": {"f": 0.0}, "padding": {"s": "U0FNRQ=="}, "fused_ops": {"list": {"s": ["Qmlhc0FkZA==", "UmVsdQ=="]}}}}, {"name": "Mconv4_stage5_L2/Mconv4_stage5_L2", "op": "_FusedConv2D", "input": ["Mconv3_stage5_L2/Mconv3_stage5_L2", "Mconv4_stage5_L2/weights", "Mconv4_stage5_L2/biases"], "device": "/device:CPU:0", "attr": {"dilations": {"list": {"i": ["1", "1", "1", "1"]}}, "T": {"type": "DT_FLOAT"}, "data_format": {"s": "TkhXQw=="}, "strides": {"list": {"i": ["1", "1", "1", "1"]}}, "explicit_paddings": {"list": {}}, "use_cudnn_on_gpu": {"b": true}, "num_args": {"i": "1"}, "epsilon": {"f": 0.0}, "padding": {"s": "U0FNRQ=="}, "fused_ops": {"list": {"s": ["Qmlhc0FkZA==", "UmVsdQ=="]}}}}, {"name": "Mconv5_stage5_L1/Mconv5_stage5_L1", "op": "_FusedConv2D", "input": ["Mconv4_stage5_L1/Mconv4_stage5_L1", "Mconv5_stage5_L1/weights", "Mconv5_stage5_L1/biases"], "device": "/device:CPU:0", "attr": {"dilations": {"list": {"i": ["1", "1", "1", "1"]}}, "T": {"type": "DT_FLOAT"}, "data_format": {"s": "TkhXQw=="}, "strides": {"list": {"i": ["1", "1", "1", "1"]}}, "explicit_paddings": {"list": {}}, "use_cudnn_on_gpu": {"b": true}, "num_args": {"i": "1"}, "epsilon": {"f": 0.0}, "padding": {"s": "U0FNRQ=="}, "fused_ops": {"list": {"s": ["Qmlhc0FkZA==", "UmVsdQ=="]}}}}, {"name": "Mconv5_stage5_L2/Mconv5_stage5_L2", "op": "_FusedConv2D", "input": ["Mconv4_stage5_L2/Mconv4_stage5_L2", "Mconv5_stage5_L2/weights", "Mconv5_stage5_L2/biases"], "device": "/device:CPU:0", "attr": {"dilations": {"list": {"i": ["1", "1", "1", "1"]}}, "T": {"type": "DT_FLOAT"}, "data_format": {"s": "TkhXQw=="}, "strides": {"list": {"i": ["1", "1", "1", "1"]}}, "explicit_paddings": {"list": {}}, "use_cudnn_on_gpu": {"b": true}, "num_args": {"i": "1"}, "epsilon": {"f": 0.0}, "padding": {"s": "U0FNRQ=="}, "fused_ops": {"list": {"s": ["Qmlhc0FkZA==", "UmVsdQ=="]}}}}, {"name": "Mconv6_stage5_L1/Mconv6_stage5_L1", "op": "_FusedConv2D", "input": ["Mconv5_stage5_L1/Mconv5_stage5_L1", "Mconv6_stage5_L1/weights", "Mconv6_stage5_L1/biases"], "device": "/device:CPU:0", "attr": {"dilations": {"list": {"i": ["1", "1", "1", "1"]}}, "T": {"type": "DT_FLOAT"}, "data_format": {"s": "TkhXQw=="}, "strides": {"list": {"i": ["1", "1", "1", "1"]}}, "explicit_paddings": {"list": {}}, "use_cudnn_on_gpu": {"b": true}, "num_args": {"i": "1"}, "epsilon": {"f": 0.0}, "padding": {"s": "U0FNRQ=="}, "fused_ops": {"list": {"s": ["Qmlhc0FkZA==", "UmVsdQ=="]}}}}, {"name": "Mconv6_stage5_L2/Mconv6_stage5_L2", "op": "_FusedConv2D", "input": ["Mconv5_stage5_L2/Mconv5_stage5_L2", "Mconv6_stage5_L2/weights", "Mconv6_stage5_L2/biases"], "device": "/device:CPU:0", "attr": {"dilations": {"list": {"i": ["1", "1", "1", "1"]}}, "T": {"type": "DT_FLOAT"}, "data_format": {"s": "TkhXQw=="}, "strides": {"list": {"i": ["1", "1", "1", "1"]}}, "explicit_paddings": {"list": {}}, "use_cudnn_on_gpu": {"b": true}, "num_args": {"i": "1"}, "epsilon": {"f": 0.0}, "padding": {"s": "U0FNRQ=="}, "fused_ops": {"list": {"s": ["Qmlhc0FkZA==", "UmVsdQ=="]}}}}, {"name": "Mconv7_stage5_L1/BiasAdd", "op": "_FusedConv2D", "input": ["Mconv6_stage5_L1/Mconv6_stage5_L1", "Mconv7_stage5_L1/weights", "Mconv7_stage5_L1/biases"], "device": "/device:CPU:0", "attr": {"dilations": {"list": {"i": ["1", "1", "1", "1"]}}, "T": {"type": "DT_FLOAT"}, "data_format": {"s": "TkhXQw=="}, "strides": {"list": {"i": ["1", "1", "1", "1"]}}, "explicit_paddings": {"list": {}}, "use_cudnn_on_gpu": {"b": true}, "num_args": {"i": "1"}, "epsilon": {"f": 0.0}, "padding": {"s": "U0FNRQ=="}, "fused_ops": {"list": {"s": ["Qmlhc0FkZA=="]}}}}, {"name": "Mconv7_stage5_L2/BiasAdd", "op": "_FusedConv2D", "input": ["Mconv6_stage5_L2/Mconv6_stage5_L2", "Mconv7_stage5_L2/weights", "Mconv7_stage5_L2/biases"], "device": "/device:CPU:0", "attr": {"dilations": {"list": {"i": ["1", "1", "1", "1"]}}, "T": {"type": "DT_FLOAT"}, "data_format": {"s": "TkhXQw=="}, "strides": {"list": {"i": ["1", "1", "1", "1"]}}, "explicit_paddings": {"list": {}}, "use_cudnn_on_gpu": {"b": true}, "num_args": {"i": "1"}, "epsilon": {"f": 0.0}, "padding": {"s": "U0FNRQ=="}, "fused_ops": {"list": {"s": ["Qmlhc0FkZA=="]}}}}, {"name": "concat_stage6", "op": "ConcatV2", "input": ["Mconv7_stage5_L1/BiasAdd", "Mconv7_stage5_L2/BiasAdd", "conv4_4_CPM/conv4_4_CPM", "concat_stage2/axis"], "attr": {"Tidx": {"type": "DT_INT32"}, "T": {"type": "DT_FLOAT"}, "N": {"i": "3"}}}, {"name": "Mconv1_stage6_L2/Mconv1_stage6_L2", "op": "_FusedConv2D", "input": ["concat_stage6", "Mconv1_stage6_L2/weights", "Mconv1_stage6_L2/biases"], "device": "/device:CPU:0", "attr": {"dilations": {"list": {"i": ["1", "1", "1", "1"]}}, "T": {"type": "DT_FLOAT"}, "data_format": {"s": "TkhXQw=="}, "strides": {"list": {"i": ["1", "1", "1", "1"]}}, "explicit_paddings": {"list": {}}, "use_cudnn_on_gpu": {"b": true}, "num_args": {"i": "1"}, "epsilon": {"f": 0.0}, "padding": {"s": "U0FNRQ=="}, "fused_ops": {"list": {"s": ["Qmlhc0FkZA==", "UmVsdQ=="]}}}}, {"name": "Mconv1_stage6_L1/Mconv1_stage6_L1", "op": "_FusedConv2D", "input": ["concat_stage6", "Mconv1_stage6_L1/weights", "Mconv1_stage6_L1/biases"], "device": "/device:CPU:0", "attr": {"dilations": {"list": {"i": ["1", "1", "1", "1"]}}, "T": {"type": "DT_FLOAT"}, "data_format": {"s": "TkhXQw=="}, "strides": {"list": {"i": ["1", "1", "1", "1"]}}, "explicit_paddings": {"list": {}}, "use_cudnn_on_gpu": {"b": true}, "num_args": {"i": "1"}, "epsilon": {"f": 0.0}, "padding": {"s": "U0FNRQ=="}, "fused_ops": {"list": {"s": ["Qmlhc0FkZA==", "UmVsdQ=="]}}}}, {"name": "Mconv2_stage6_L2/Mconv2_stage6_L2", "op": "_FusedConv2D", "input": ["Mconv1_stage6_L2/Mconv1_stage6_L2", "Mconv2_stage6_L2/weights", "Mconv2_stage6_L2/biases"], "device": "/device:CPU:0", "attr": {"dilations": {"list": {"i": ["1", "1", "1", "1"]}}, "T": {"type": "DT_FLOAT"}, "data_format": {"s": "TkhXQw=="}, "strides": {"list": {"i": ["1", "1", "1", "1"]}}, "explicit_paddings": {"list": {}}, "use_cudnn_on_gpu": {"b": true}, "num_args": {"i": "1"}, "epsilon": {"f": 0.0}, "padding": {"s": "U0FNRQ=="}, "fused_ops": {"list": {"s": ["Qmlhc0FkZA==", "UmVsdQ=="]}}}}, {"name": "Mconv2_stage6_L1/Mconv2_stage6_L1", "op": "_FusedConv2D", "input": ["Mconv1_stage6_L1/Mconv1_stage6_L1", "Mconv2_stage6_L1/weights", "Mconv2_stage6_L1/biases"], "device": "/device:CPU:0", "attr": {"dilations": {"list": {"i": ["1", "1", "1", "1"]}}, "T": {"type": "DT_FLOAT"}, "data_format": {"s": "TkhXQw=="}, "strides": {"list": {"i": ["1", "1", "1", "1"]}}, "explicit_paddings": {"list": {}}, "use_cudnn_on_gpu": {"b": true}, "num_args": {"i": "1"}, "epsilon": {"f": 0.0}, "padding": {"s": "U0FNRQ=="}, "fused_ops": {"list": {"s": ["Qmlhc0FkZA==", "UmVsdQ=="]}}}}, {"name": "Mconv3_stage6_L2/Mconv3_stage6_L2", "op": "_FusedConv2D", "input": ["Mconv2_stage6_L2/Mconv2_stage6_L2", "Mconv3_stage6_L2/weights", "Mconv3_stage6_L2/biases"], "device": "/device:CPU:0", "attr": {"dilations": {"list": {"i": ["1", "1", "1", "1"]}}, "T": {"type": "DT_FLOAT"}, "data_format": {"s": "TkhXQw=="}, "strides": {"list": {"i": ["1", "1", "1", "1"]}}, "explicit_paddings": {"list": {}}, "use_cudnn_on_gpu": {"b": true}, "num_args": {"i": "1"}, "epsilon": {"f": 0.0}, "padding": {"s": "U0FNRQ=="}, "fused_ops": {"list": {"s": ["Qmlhc0FkZA==", "UmVsdQ=="]}}}}, {"name": "Mconv3_stage6_L1/Mconv3_stage6_L1", "op": "_FusedConv2D", "input": ["Mconv2_stage6_L1/Mconv2_stage6_L1", "Mconv3_stage6_L1/weights", "Mconv3_stage6_L1/biases"], "device": "/device:CPU:0", "attr": {"dilations": {"list": {"i": ["1", "1", "1", "1"]}}, "T": {"type": "DT_FLOAT"}, "data_format": {"s": "TkhXQw=="}, "strides": {"list": {"i": ["1", "1", "1", "1"]}}, "explicit_paddings": {"list": {}}, "use_cudnn_on_gpu": {"b": true}, "num_args": {"i": "1"}, "epsilon": {"f": 0.0}, "padding": {"s": "U0FNRQ=="}, "fused_ops": {"list": {"s": ["Qmlhc0FkZA==", "UmVsdQ=="]}}}}, {"name": "Mconv4_stage6_L2/Mconv4_stage6_L2", "op": "_FusedConv2D", "input": ["Mconv3_stage6_L2/Mconv3_stage6_L2", "Mconv4_stage6_L2/weights", "Mconv4_stage6_L2/biases"], "device": "/device:CPU:0", "attr": {"dilations": {"list": {"i": ["1", "1", "1", "1"]}}, "T": {"type": "DT_FLOAT"}, "data_format": {"s": "TkhXQw=="}, "strides": {"list": {"i": ["1", "1", "1", "1"]}}, "explicit_paddings": {"list": {}}, "use_cudnn_on_gpu": {"b": true}, "num_args": {"i": "1"}, "epsilon": {"f": 0.0}, "padding": {"s": "U0FNRQ=="}, "fused_ops": {"list": {"s": ["Qmlhc0FkZA==", "UmVsdQ=="]}}}}, {"name": "Mconv4_stage6_L1/Mconv4_stage6_L1", "op": "_FusedConv2D", "input": ["Mconv3_stage6_L1/Mconv3_stage6_L1", "Mconv4_stage6_L1/weights", "Mconv4_stage6_L1/biases"], "device": "/device:CPU:0", "attr": {"dilations": {"list": {"i": ["1", "1", "1", "1"]}}, "T": {"type": "DT_FLOAT"}, "data_format": {"s": "TkhXQw=="}, "strides": {"list": {"i": ["1", "1", "1", "1"]}}, "explicit_paddings": {"list": {}}, "use_cudnn_on_gpu": {"b": true}, "num_args": {"i": "1"}, "epsilon": {"f": 0.0}, "padding": {"s": "U0FNRQ=="}, "fused_ops": {"list": {"s": ["Qmlhc0FkZA==", "UmVsdQ=="]}}}}, {"name": "Mconv5_stage6_L2/Mconv5_stage6_L2", "op": "_FusedConv2D", "input": ["Mconv4_stage6_L2/Mconv4_stage6_L2", "Mconv5_stage6_L2/weights", "Mconv5_stage6_L2/biases"], "device": "/device:CPU:0", "attr": {"dilations": {"list": {"i": ["1", "1", "1", "1"]}}, "T": {"type": "DT_FLOAT"}, "data_format": {"s": "TkhXQw=="}, "strides": {"list": {"i": ["1", "1", "1", "1"]}}, "explicit_paddings": {"list": {}}, "use_cudnn_on_gpu": {"b": true}, "num_args": {"i": "1"}, "epsilon": {"f": 0.0}, "padding": {"s": "U0FNRQ=="}, "fused_ops": {"list": {"s": ["Qmlhc0FkZA==", "UmVsdQ=="]}}}}, {"name": "Mconv5_stage6_L1/Mconv5_stage6_L1", "op": "_FusedConv2D", "input": ["Mconv4_stage6_L1/Mconv4_stage6_L1", "Mconv5_stage6_L1/weights", "Mconv5_stage6_L1/biases"], "device": "/device:CPU:0", "attr": {"dilations": {"list": {"i": ["1", "1", "1", "1"]}}, "T": {"type": "DT_FLOAT"}, "data_format": {"s": "TkhXQw=="}, "strides": {"list": {"i": ["1", "1", "1", "1"]}}, "explicit_paddings": {"list": {}}, "use_cudnn_on_gpu": {"b": true}, "num_args": {"i": "1"}, "epsilon": {"f": 0.0}, "padding": {"s": "U0FNRQ=="}, "fused_ops": {"list": {"s": ["Qmlhc0FkZA==", "UmVsdQ=="]}}}}, {"name": "Mconv6_stage6_L2/Mconv6_stage6_L2", "op": "_FusedConv2D", "input": ["Mconv5_stage6_L2/Mconv5_stage6_L2", "Mconv6_stage6_L2/weights", "Mconv6_stage6_L2/biases"], "device": "/device:CPU:0", "attr": {"dilations": {"list": {"i": ["1", "1", "1", "1"]}}, "T": {"type": "DT_FLOAT"}, "data_format": {"s": "TkhXQw=="}, "strides": {"list": {"i": ["1", "1", "1", "1"]}}, "explicit_paddings": {"list": {}}, "use_cudnn_on_gpu": {"b": true}, "num_args": {"i": "1"}, "epsilon": {"f": 0.0}, "padding": {"s": "U0FNRQ=="}, "fused_ops": {"list": {"s": ["Qmlhc0FkZA==", "UmVsdQ=="]}}}}, {"name": "Mconv6_stage6_L1/Mconv6_stage6_L1", "op": "_FusedConv2D", "input": ["Mconv5_stage6_L1/Mconv5_stage6_L1", "Mconv6_stage6_L1/weights", "Mconv6_stage6_L1/biases"], "device": "/device:CPU:0", "attr": {"dilations": {"list": {"i": ["1", "1", "1", "1"]}}, "T": {"type": "DT_FLOAT"}, "data_format": {"s": "TkhXQw=="}, "strides": {"list": {"i": ["1", "1", "1", "1"]}}, "explicit_paddings": {"list": {}}, "use_cudnn_on_gpu": {"b": true}, "num_args": {"i": "1"}, "epsilon": {"f": 0.0}, "padding": {"s": "U0FNRQ=="}, "fused_ops": {"list": {"s": ["Qmlhc0FkZA==", "UmVsdQ=="]}}}}, {"name": "Mconv7_stage6_L2/BiasAdd", "op": "_FusedConv2D", "input": ["Mconv6_stage6_L2/Mconv6_stage6_L2", "Mconv7_stage6_L2/weights", "Mconv7_stage6_L2/biases"], "device": "/device:CPU:0", "attr": {"dilations": {"list": {"i": ["1", "1", "1", "1"]}}, "T": {"type": "DT_FLOAT"}, "data_format": {"s": "TkhXQw=="}, "strides": {"list": {"i": ["1", "1", "1", "1"]}}, "explicit_paddings": {"list": {}}, "use_cudnn_on_gpu": {"b": true}, "num_args": {"i": "1"}, "epsilon": {"f": 0.0}, "padding": {"s": "U0FNRQ=="}, "fused_ops": {"list": {"s": ["Qmlhc0FkZA=="]}}}}, {"name": "Mconv7_stage6_L1/BiasAdd", "op": "_FusedConv2D", "input": ["Mconv6_stage6_L1/Mconv6_stage6_L1", "Mconv7_stage6_L1/weights", "Mconv7_stage6_L1/biases"], "device": "/device:CPU:0", "attr": {"dilations": {"list": {"i": ["1", "1", "1", "1"]}}, "T": {"type": "DT_FLOAT"}, "data_format": {"s": "TkhXQw=="}, "strides": {"list": {"i": ["1", "1", "1", "1"]}}, "explicit_paddings": {"list": {}}, "use_cudnn_on_gpu": {"b": true}, "num_args": {"i": "1"}, "epsilon": {"f": 0.0}, "padding": {"s": "U0FNRQ=="}, "fused_ops": {"list": {"s": ["Qmlhc0FkZA=="]}}}}, {"name": "Openpose/concat_stage7", "op": "ConcatV2", "input": ["Mconv7_stage6_L2/BiasAdd", "Mconv7_stage6_L1/BiasAdd", "concat_stage2/axis"], "attr": {"Tidx": {"type": "DT_INT32"}, "T": {"type": "DT_FLOAT"}, "N": {"i": "2"}}}], "versions": {}}, "weightsManifest": [{"paths": ["group1-shard1of50.bin", "group1-shard2of50.bin", "group1-shard3of50.bin", "group1-shard4of50.bin", "group1-shard5of50.bin", "group1-shard6of50.bin", "group1-shard7of50.bin", "group1-shard8of50.bin", "group1-shard9of50.bin", "group1-shard10of50.bin", "group1-shard11of50.bin", "group1-shard12of50.bin", "group1-shard13of50.bin", "group1-shard14of50.bin", "group1-shard15of50.bin", "group1-shard16of50.bin", "group1-shard17of50.bin", "group1-shard18of50.bin", "group1-shard19of50.bin", "group1-shard20of50.bin", "group1-shard21of50.bin", "group1-shard22of50.bin", "group1-shard23of50.bin", "group1-shard24of50.bin", "group1-shard25of50.bin", "group1-shard26of50.bin", "group1-shard27of50.bin", "group1-shard28of50.bin", "group1-shard29of50.bin", "group1-shard30of50.bin", "group1-shard31of50.bin", "group1-shard32of50.bin", "group1-shard33of50.bin", "group1-shard34of50.bin", "group1-shard35of50.bin", "group1-shard36of50.bin", "group1-shard37of50.bin", "group1-shard38of50.bin", "group1-shard39of50.bin", "group1-shard40of50.bin", "group1-shard41of50.bin", "group1-shard42of50.bin", "group1-shard43of50.bin", "group1-shard44of50.bin", "group1-shard45of50.bin", "group1-shard46of50.bin", "group1-shard47of50.bin", "group1-shard48of50.bin", "group1-shard49of50.bin", "group1-shard50of50.bin"], "weights": [{"name": "preprocess_subtract/y", "shape": [], "dtype": "float32"}, {"name": "conv1_1/weights", "shape": [3, 3, 3, 64], "dtype": "float32"}, {"name": "conv1_1/biases", "shape": [64], "dtype": "float32"}, {"name": "conv1_2/weights", "shape": [3, 3, 64, 64], "dtype": "float32"}, {"name": "Mconv3_stage5_L1/weights", "shape": [7, 7, 128, 128], "dtype": "float32"}, {"name": "conv1_2/biases", "shape": [64], "dtype": "float32"}, {"name": "Mconv6_stage6_L2/weights", "shape": [1, 1, 128, 128], "dtype": "float32"}, {"name": "conv2_1/weights", "shape": [3, 3, 64, 128], "dtype": "float32"}, {"name": "conv2_1/biases", "shape": [128], "dtype": "float32"}, {"name": "Mconv3_stage5_L1/biases", "shape": [128], "dtype": "float32"}, {"name": "conv2_2/weights", "shape": [3, 3, 128, 128], "dtype": "float32"}, {"name": "conv2_2/biases", "shape": [128], "dtype": "float32"}, {"name": "conv3_1/weights", "shape": [3, 3, 128, 256], "dtype": "float32"}, {"name": "conv3_1/biases", "shape": [256], "dtype": "float32"}, {"name": "Mconv4_stage5_L1/weights", "shape": [7, 7, 128, 128], "dtype": "float32"}, {"name": "conv3_2/weights", "shape": [3, 3, 256, 256], "dtype": "float32"}, {"name": "Mconv1_stage6_L2/weights", "shape": [7, 7, 185, 128], "dtype": "float32"}, {"name": "conv3_2/biases", "shape": [256], "dtype": "float32"}, {"name": "conv3_3/weights", "shape": [3, 3, 256, 256], "dtype": "float32"}, {"name": "Mconv4_stage5_L1/biases", "shape": [128], "dtype": "float32"}, {"name": "conv3_3/biases", "shape": [256], "dtype": "float32"}, {"name": "conv3_4/weights", "shape": [3, 3, 256, 256], "dtype": "float32"}, {"name": "conv3_4/biases", "shape": [256], "dtype": "float32"}, {"name": "conv4_1/weights", "shape": [3, 3, 256, 512], "dtype": "float32"}, {"name": "Mconv5_stage5_L1/weights", "shape": [7, 7, 128, 128], "dtype": "float32"}, {"name": "conv4_1/biases", "shape": [512], "dtype": "float32"}, {"name": "conv4_2/weights", "shape": [3, 3, 512, 512], "dtype": "float32"}, {"name": "conv4_2/biases", "shape": [512], "dtype": "float32"}, {"name": "Mconv5_stage5_L1/biases", "shape": [128], "dtype": "float32"}, {"name": "conv4_3_CPM/weights", "shape": [3, 3, 512, 256], "dtype": "float32"}, {"name": "Mconv1_stage6_L2/biases", "shape": [128], "dtype": "float32"}, {"name": "conv4_3_CPM/biases", "shape": [256], "dtype": "float32"}, {"name": "conv4_4_CPM/weights", "shape": [3, 3, 256, 128], "dtype": "float32"}, {"name": "conv4_4_CPM/biases", "shape": [128], "dtype": "float32"}, {"name": "Mconv6_stage5_L1/weights", "shape": [1, 1, 128, 128], "dtype": "float32"}, {"name": "conv5_1_CPM_L1/weights", "shape": [3, 3, 128, 128], "dtype": "float32"}, {"name": "conv5_1_CPM_L1/biases", "shape": [128], "dtype": "float32"}, {"name": "conv5_2_CPM_L1/weights", "shape": [3, 3, 128, 128], "dtype": "float32"}, {"name": "Mconv6_stage5_L1/biases", "shape": [128], "dtype": "float32"}, {"name": "conv5_2_CPM_L1/biases", "shape": [128], "dtype": "float32"}, {"name": "conv5_3_CPM_L1/weights", "shape": [3, 3, 128, 128], "dtype": "float32"}, {"name": "conv5_3_CPM_L1/biases", "shape": [128], "dtype": "float32"}, {"name": "conv5_4_CPM_L1/weights", "shape": [1, 1, 128, 512], "dtype": "float32"}, {"name": "Mconv7_stage5_L1/weights", "shape": [1, 1, 128, 38], "dtype": "float32"}, {"name": "conv5_4_CPM_L1/biases", "shape": [512], "dtype": "float32"}, {"name": "conv5_5_CPM_L1/weights", "shape": [1, 1, 512, 38], "dtype": "float32"}, {"name": "conv5_5_CPM_L1/biases", "shape": [38], "dtype": "float32"}, {"name": "Mconv7_stage5_L1/biases", "shape": [38], "dtype": "float32"}, {"name": "conv5_1_CPM_L2/weights", "shape": [3, 3, 128, 128], "dtype": "float32"}, {"name": "Mconv2_stage6_L2/weights", "shape": [7, 7, 128, 128], "dtype": "float32"}, {"name": "conv5_1_CPM_L2/biases", "shape": [128], "dtype": "float32"}, {"name": "conv5_2_CPM_L2/weights", "shape": [3, 3, 128, 128], "dtype": "float32"}, {"name": "Mconv1_stage5_L2/weights", "shape": [7, 7, 185, 128], "dtype": "float32"}, {"name": "conv5_2_CPM_L2/biases", "shape": [128], "dtype": "float32"}, {"name": "Mconv6_stage6_L2/biases", "shape": [128], "dtype": "float32"}, {"name": "conv5_3_CPM_L2/weights", "shape": [3, 3, 128, 128], "dtype": "float32"}, {"name": "conv5_3_CPM_L2/biases", "shape": [128], "dtype": "float32"}, {"name": "Mconv1_stage5_L2/biases", "shape": [128], "dtype": "float32"}, {"name": "conv5_4_CPM_L2/weights", "shape": [1, 1, 128, 512], "dtype": "float32"}, {"name": "conv5_4_CPM_L2/biases", "shape": [512], "dtype": "float32"}, {"name": "conv5_5_CPM_L2/weights", "shape": [1, 1, 512, 19], "dtype": "float32"}, {"name": "conv5_5_CPM_L2/biases", "shape": [19], "dtype": "float32"}, {"name": "Mconv2_stage5_L2/weights", "shape": [7, 7, 128, 128], "dtype": "float32"}, {"name": "concat_stage2/axis", "shape": [], "dtype": "int32"}, {"name": "Mconv1_stage2_L1/weights", "shape": [7, 7, 185, 128], "dtype": "float32"}, {"name": "Mconv2_stage6_L2/biases", "shape": [128], "dtype": "float32"}, {"name": "Mconv1_stage2_L1/biases", "shape": [128], "dtype": "float32"}, {"name": "Mconv2_stage2_L1/weights", "shape": [7, 7, 128, 128], "dtype": "float32"}, {"name": "Mconv2_stage5_L2/biases", "shape": [128], "dtype": "float32"}, {"name": "Mconv2_stage2_L1/biases", "shape": [128], "dtype": "float32"}, {"name": "Mconv3_stage2_L1/weights", "shape": [7, 7, 128, 128], "dtype": "float32"}, {"name": "Mconv3_stage2_L1/biases", "shape": [128], "dtype": "float32"}, {"name": "Mconv4_stage2_L1/weights", "shape": [7, 7, 128, 128], "dtype": "float32"}, {"name": "Mconv3_stage5_L2/weights", "shape": [7, 7, 128, 128], "dtype": "float32"}, {"name": "Mconv4_stage2_L1/biases", "shape": [128], "dtype": "float32"}, {"name": "Mconv5_stage2_L1/weights", "shape": [7, 7, 128, 128], "dtype": "float32"}, {"name": "Mconv5_stage2_L1/biases", "shape": [128], "dtype": "float32"}, {"name": "Mconv3_stage5_L2/biases", "shape": [128], "dtype": "float32"}, {"name": "Mconv6_stage2_L1/weights", "shape": [1, 1, 128, 128], "dtype": "float32"}, {"name": "Mconv6_stage2_L1/biases", "shape": [128], "dtype": "float32"}, {"name": "Mconv7_stage2_L1/weights", "shape": [1, 1, 128, 38], "dtype": "float32"}, {"name": "Mconv7_stage2_L1/biases", "shape": [38], "dtype": "float32"}, {"name": "Mconv4_stage5_L2/weights", "shape": [7, 7, 128, 128], "dtype": "float32"}, {"name": "Mconv1_stage2_L2/weights", "shape": [7, 7, 185, 128], "dtype": "float32"}, {"name": "Mconv3_stage6_L2/weights", "shape": [7, 7, 128, 128], "dtype": "float32"}, {"name": "Mconv1_stage2_L2/biases", "shape": [128], "dtype": "float32"}, {"name": "Mconv2_stage2_L2/weights", "shape": [7, 7, 128, 128], "dtype": "float32"}, {"name": "Mconv4_stage5_L2/biases", "shape": [128], "dtype": "float32"}, {"name": "Mconv2_stage2_L2/biases", "shape": [128], "dtype": "float32"}, {"name": "Mconv3_stage2_L2/weights", "shape": [7, 7, 128, 128], "dtype": "float32"}, {"name": "Mconv3_stage2_L2/biases", "shape": [128], "dtype": "float32"}, {"name": "Mconv4_stage2_L2/weights", "shape": [7, 7, 128, 128], "dtype": "float32"}, {"name": "Mconv5_stage5_L2/weights", "shape": [7, 7, 128, 128], "dtype": "float32"}, {"name": "Mconv4_stage2_L2/biases", "shape": [128], "dtype": "float32"}, {"name": "Mconv5_stage2_L2/weights", "shape": [7, 7, 128, 128], "dtype": "float32"}, {"name": "Mconv5_stage2_L2/biases", "shape": [128], "dtype": "float32"}, {"name": "Mconv5_stage5_L2/biases", "shape": [128], "dtype": "float32"}, {"name": "Mconv6_stage2_L2/weights", "shape": [1, 1, 128, 128], "dtype": "float32"}, {"name": "Mconv3_stage6_L2/biases", "shape": [128], "dtype": "float32"}, {"name": "Mconv6_stage2_L2/biases", "shape": [128], "dtype": "float32"}, {"name": "Mconv7_stage2_L2/weights", "shape": [1, 1, 128, 19], "dtype": "float32"}, {"name": "Mconv7_stage2_L2/biases", "shape": [19], "dtype": "float32"}, {"name": "Mconv6_stage5_L2/weights", "shape": [1, 1, 128, 128], "dtype": "float32"}, {"name": "Mconv1_stage3_L1/weights", "shape": [7, 7, 185, 128], "dtype": "float32"}, {"name": "Mconv1_stage3_L1/biases", "shape": [128], "dtype": "float32"}, {"name": "Mconv2_stage3_L1/weights", "shape": [7, 7, 128, 128], "dtype": "float32"}, {"name": "Mconv6_stage5_L2/biases", "shape": [128], "dtype": "float32"}, {"name": "Mconv2_stage3_L1/biases", "shape": [128], "dtype": "float32"}, {"name": "Mconv3_stage3_L1/weights", "shape": [7, 7, 128, 128], "dtype": "float32"}, {"name": "Mconv3_stage3_L1/biases", "shape": [128], "dtype": "float32"}, {"name": "Mconv4_stage3_L1/weights", "shape": [7, 7, 128, 128], "dtype": "float32"}, {"name": "Mconv7_stage5_L2/weights", "shape": [1, 1, 128, 19], "dtype": "float32"}, {"name": "Mconv4_stage3_L1/biases", "shape": [128], "dtype": "float32"}, {"name": "Mconv5_stage3_L1/weights", "shape": [7, 7, 128, 128], "dtype": "float32"}, {"name": "Mconv5_stage3_L1/biases", "shape": [128], "dtype": "float32"}, {"name": "Mconv7_stage5_L2/biases", "shape": [19], "dtype": "float32"}, {"name": "Mconv6_stage3_L1/weights", "shape": [1, 1, 128, 128], "dtype": "float32"}, {"name": "Mconv4_stage6_L2/weights", "shape": [7, 7, 128, 128], "dtype": "float32"}, {"name": "Mconv6_stage3_L1/biases", "shape": [128], "dtype": "float32"}, {"name": "Mconv7_stage3_L1/weights", "shape": [1, 1, 128, 38], "dtype": "float32"}, {"name": "Mconv7_stage3_L1/biases", "shape": [38], "dtype": "float32"}, {"name": "Mconv1_stage3_L2/weights", "shape": [7, 7, 185, 128], "dtype": "float32"}, {"name": "Mconv1_stage6_L1/weights", "shape": [7, 7, 185, 128], "dtype": "float32"}, {"name": "Mconv1_stage3_L2/biases", "shape": [128], "dtype": "float32"}, {"name": "Mconv7_stage6_L2/weights", "shape": [1, 1, 128, 19], "dtype": "float32"}, {"name": "Mconv2_stage3_L2/weights", "shape": [7, 7, 128, 128], "dtype": "float32"}, {"name": "Mconv2_stage3_L2/biases", "shape": [128], "dtype": "float32"}, {"name": "Mconv1_stage6_L1/biases", "shape": [128], "dtype": "float32"}, {"name": "Mconv3_stage3_L2/weights", "shape": [7, 7, 128, 128], "dtype": "float32"}, {"name": "Mconv3_stage3_L2/biases", "shape": [128], "dtype": "float32"}, {"name": "Mconv4_stage3_L2/weights", "shape": [7, 7, 128, 128], "dtype": "float32"}, {"name": "Mconv4_stage3_L2/biases", "shape": [128], "dtype": "float32"}, {"name": "Mconv2_stage6_L1/weights", "shape": [7, 7, 128, 128], "dtype": "float32"}, {"name": "Mconv5_stage3_L2/weights", "shape": [7, 7, 128, 128], "dtype": "float32"}, {"name": "Mconv4_stage6_L2/biases", "shape": [128], "dtype": "float32"}, {"name": "Mconv5_stage3_L2/biases", "shape": [128], "dtype": "float32"}, {"name": "Mconv6_stage3_L2/weights", "shape": [1, 1, 128, 128], "dtype": "float32"}, {"name": "Mconv2_stage6_L1/biases", "shape": [128], "dtype": "float32"}, {"name": "Mconv6_stage3_L2/biases", "shape": [128], "dtype": "float32"}, {"name": "Mconv7_stage3_L2/weights", "shape": [1, 1, 128, 19], "dtype": "float32"}, {"name": "Mconv7_stage3_L2/biases", "shape": [19], "dtype": "float32"}, {"name": "Mconv1_stage4_L1/weights", "shape": [7, 7, 185, 128], "dtype": "float32"}, {"name": "Mconv3_stage6_L1/weights", "shape": [7, 7, 128, 128], "dtype": "float32"}, {"name": "Mconv1_stage4_L1/biases", "shape": [128], "dtype": "float32"}, {"name": "Mconv2_stage4_L1/weights", "shape": [7, 7, 128, 128], "dtype": "float32"}, {"name": "Mconv2_stage4_L1/biases", "shape": [128], "dtype": "float32"}, {"name": "Mconv3_stage6_L1/biases", "shape": [128], "dtype": "float32"}, {"name": "Mconv3_stage4_L1/weights", "shape": [7, 7, 128, 128], "dtype": "float32"}, {"name": "Mconv3_stage4_L1/biases", "shape": [128], "dtype": "float32"}, {"name": "Mconv4_stage4_L1/weights", "shape": [7, 7, 128, 128], "dtype": "float32"}, {"name": "Mconv4_stage4_L1/biases", "shape": [128], "dtype": "float32"}, {"name": "Mconv4_stage6_L1/weights", "shape": [7, 7, 128, 128], "dtype": "float32"}, {"name": "Mconv5_stage4_L1/weights", "shape": [7, 7, 128, 128], "dtype": "float32"}, {"name": "Mconv5_stage6_L2/weights", "shape": [7, 7, 128, 128], "dtype": "float32"}, {"name": "Mconv5_stage4_L1/biases", "shape": [128], "dtype": "float32"}, {"name": "Mconv6_stage4_L1/weights", "shape": [1, 1, 128, 128], "dtype": "float32"}, {"name": "Mconv4_stage6_L1/biases", "shape": [128], "dtype": "float32"}, {"name": "Mconv6_stage4_L1/biases", "shape": [128], "dtype": "float32"}, {"name": "Mconv7_stage4_L1/weights", "shape": [1, 1, 128, 38], "dtype": "float32"}, {"name": "Mconv7_stage4_L1/biases", "shape": [38], "dtype": "float32"}, {"name": "Mconv1_stage4_L2/weights", "shape": [7, 7, 185, 128], "dtype": "float32"}, {"name": "Mconv5_stage6_L1/weights", "shape": [7, 7, 128, 128], "dtype": "float32"}, {"name": "Mconv1_stage4_L2/biases", "shape": [128], "dtype": "float32"}, {"name": "Mconv2_stage4_L2/weights", "shape": [7, 7, 128, 128], "dtype": "float32"}, {"name": "Mconv2_stage4_L2/biases", "shape": [128], "dtype": "float32"}, {"name": "Mconv5_stage6_L1/biases", "shape": [128], "dtype": "float32"}, {"name": "Mconv3_stage4_L2/weights", "shape": [7, 7, 128, 128], "dtype": "float32"}, {"name": "Mconv5_stage6_L2/biases", "shape": [128], "dtype": "float32"}, {"name": "Mconv3_stage4_L2/biases", "shape": [128], "dtype": "float32"}, {"name": "Mconv4_stage4_L2/weights", "shape": [7, 7, 128, 128], "dtype": "float32"}, {"name": "Mconv4_stage4_L2/biases", "shape": [128], "dtype": "float32"}, {"name": "Mconv6_stage6_L1/weights", "shape": [1, 1, 128, 128], "dtype": "float32"}, {"name": "Mconv5_stage4_L2/weights", "shape": [7, 7, 128, 128], "dtype": "float32"}, {"name": "Mconv7_stage6_L2/biases", "shape": [19], "dtype": "float32"}, {"name": "Mconv5_stage4_L2/biases", "shape": [128], "dtype": "float32"}, {"name": "Mconv6_stage4_L2/weights", "shape": [1, 1, 128, 128], "dtype": "float32"}, {"name": "Mconv6_stage6_L1/biases", "shape": [128], "dtype": "float32"}, {"name": "Mconv6_stage4_L2/biases", "shape": [128], "dtype": "float32"}, {"name": "Mconv7_stage4_L2/weights", "shape": [1, 1, 128, 19], "dtype": "float32"}, {"name": "Mconv7_stage4_L2/biases", "shape": [19], "dtype": "float32"}, {"name": "Mconv1_stage5_L1/weights", "shape": [7, 7, 185, 128], "dtype": "float32"}, {"name": "Mconv7_stage6_L1/weights", "shape": [1, 1, 128, 38], "dtype": "float32"}, {"name": "Mconv1_stage5_L1/biases", "shape": [128], "dtype": "float32"}, {"name": "Mconv2_stage5_L1/weights", "shape": [7, 7, 128, 128], "dtype": "float32"}, {"name": "Mconv2_stage5_L1/biases", "shape": [128], "dtype": "float32"}, {"name": "Mconv7_stage6_L1/biases", "shape": [38], "dtype": "float32"}, {"name": "ConstantFolding/preprocess_divide_recip", "shape": [], "dtype": "float32"}]}]}